Experiments/RL/models/Normal DQN/policy_net.pth (torch, 576040 bytes, 4 tensors)

a1.weight f4 [64, 2232]
0	0xbb4eff70	-0.0031585358
1	0x3c9ba4f7	0.01899956
2	0xbc475083	-0.012165192
3	0xbc8bdb6d	-0.017072404
4	0x3b8896d8	0.0041683726
5	0x3b3fed18	0.0029285606
6	0x3c37bbea	0.011214236
7	0xbc80eb9e	-0.015737351
8	0x3c20b1bc	0.009808
9	0x3c04e320	0.008110791
10	0xbc3a466e	-0.011369331
11	0x3bfb1514	0.007662425
12	0xbc0ab68c	-0.008466374
13	0xbc5d529c	-0.013508465
14	0x3c0caf32	0.008586692
15	0xbc8b140c	-0.016977333
16	0x3c2c43f6	0.01051425
17	0x3c4f0486	0.012635356
18	0xbc5db03e	-0.013530789
19	0x3c65feae	0.014037771
20	0xbb94f060	-0.0045452565
21	0xbc851130	-0.016243547
22	0xb91d4380	-0.00014997832
23	0xbcaaee87	-0.020865692
24	0x3c68016e	0.014160497
25	0x3c8abbd9	0.016935276
26	0x3c13155e	0.008977262
27	0x3b87832c	0.00413551
28	0xbca90a79	-0.020634877
29	0xbaae5f00	-0.0013303459
30	0xbc6d3ecc	-0.014480304
31	0xbcaa8dd7	-0.020819588
32	0xbc9b16a7	-0.0189317
33	0xbc9ee787	-0.01939751
34	0x3c023b76	0.007948747
35	0x39b7cb00	0.00035055727
36	0x3c6da302	0.014504196
37	0xbc8740fa	-0.016510475
38	0xbc7fb5c2	-0.015607299
39	0xbbc33d68	-0.005958248
40	0xbc32b721	-0.010907919
41	0x3c8a36d9	0.016871857
42	0xbc8824b8	-0.016619071
43	0xbc52bd71	-0.012862549
44	0x3c671992	0.0141052175
45	0xbc1d0bc6	-0.009585327
46	0x3c766d4e	0.015040709
47	0xbc8a249e	-0.016863164
48	0x3a9a6760	0.0011780076
49	0xbc011096	-0.00787749
50	0x3c0a5c22	0.008444818
51	0xbba61728	-0.0050686784
52	0xbc8cc879	-0.017185437
53	0xb95b3080	-0.00020903535
54	0xbc7ac23c	-0.015305098
55	0xbc2b1102	-0.010441067
56	0xbc9e57d6	-0.019328993
57	0xbc25a96d	-0.010111195
58	0x3a048700	0.0005055517
59	0x3c59193e	0.013250647
60	0xbc360f1f	-0.011112004
61	0xbb18eba8	-0.0023333821
62	0x3b450000	0.0030059814
63	0x3c7bd69a	0.015370989
64	0x3bd85564	0.006601976
65	0x3c194928	0.009355821
66	0xbc9222a2	-0.01783878
67	0x3cad0993	0.02112273
68	0xbca18706	-0.019717705
69	0x3bcbbecc	0.006217813
70	0x3bb86a7c	0.0056279283
71	0x3c4e06a6	0.012574827
72	0xbc921c02	-0.01783562
73	0xbaf2ab10	-0.0018514115
74	0xbaae7680	-0.0013310462
75	0xbc78b8ae	-0.01518075
76	0xbb3a7258	-0.0028449502
77	0xbb79c530	-0.0038111918
78	0xbc097cd9	-0.008391582
79	0x3c5118ca	0.012762258
80	0xbc7d9598	-0.01547756
81	0xbb917460	-0.004438922
82	0x3c9c5561	0.01908368
83	0xbc527d85	-0.012847309
84	0x3c37101a	0.0111732725
85	0xbae5c230	-0.0017529186
86	0xbbb17314	-0.0054153297
87	0xbc2a9d2a	-0.010413447
88	0xbc8ce149	-0.017197268
89	0x3a3e5600	0.000726074
90	0x3ca3a2d7	0.019975109
91	0xbc813934	-0.015774347
92	0x3c099fe0	0.008399934
93	0x3c7708a2	0.015077742
94	0x3a1966c0	0.0005851798
95	0xbc38f851	-0.011289672
96	0x3be2c6e8	0.006920684
97	0x3c69677a	0.014245862
98	0xbc120ebe	-0.008914648
99	0x3b0dc978	0.0021634977
100	0x3c9f77b9	0.019466268
101	0x3cad2c29	0.021139221
102	0xbba7c040	-0.0051193535
103	0xbc21d9b5	-0.009878566
104	0xbc9a0ff9	-0.018806444
105	0x3c94e7e3	0.018176978
106	0x3c107ef8	0.008819334
107	0xbc53cd05	-0.012927298
108	0xb9e32740	-0.00043326057
109	0xba7a9d40	-0.0009560175
110	0xbc362fc2	-0.011119785
111	0xbc96ab33	-0.018392181
112	0xbb7cf100	-0.0038595796
113	0x3b98dc30	0.0046649203
114	0x3c8e0e2d	0.017340744
115	0x3c17c85c	0.009264078
116	0x3ca83d69	0.020537095
117	0xbc998aec	-0.018743
118	0x3bb473c4	0.0055069644
119	0xbc70e6c6	-0.014703458
120	0x3b61e780	0.003447026
121	0x3c1afbf8	0.009459488
122	0x3bf594b0	0.0074945316
123	0x3c6db32a	0.014508048
124	0x3b88e628	0.0041778274
125	0x3ca1976d	0.019725526
126	0xba08e180	-0.00052215904
127	0x3c4141a2	0.011795433
128	0xbca3e6ba	-0.02000748
129	0x3c6801a2	0.014160546
130	0xbbf2879c	-0.00740142
131	0x3c5a7662	0.013333889
132	0xbca64437	-0.0202962
133	0x3c7fd622	0.015615018
134	0x3c99fba3	0.018796748
135	0x3c8ac035	0.016937355
136	0x38326a00	4.2537227e-05
137	0x3c954b63	0.018224424
138	0x3c3ad07a	0.011402244
139	0xbc8b55d5	-0.017008701
140	0x3b9ba400	0.004749775
141	0x38cc8f00	9.754114e-05
142	0xbb4e4d80	-0.00314793
143	0xbc296a73	-0.010340321
144	0xbc698534	-0.0142529495
145	0xbcacbe63	-0.021086877
146	0xbc2cba9e	-0.01054254
147	0xbc8e3ace	-0.017362025
148	0xbc267cf2	-0.010161625
149	0xbca040ac	-0.019562088
150	0x3c85e673	0.016345238
151	0x3c023c82	0.0079489965
152	0xbb133460	-0.0022461638
153	0x3c88fb55	0.016721407
154	0xbc0a0103	-0.008423093
155	0x3a791ae0	0.0009502601
156	0x3c18d0c6	0.009327119
157	0x3c99d62d	0.018778885
158	0x3c2401fa	0.010010237
159	0xbb7030f8	-0.0036650281
160	0xbc4aa4c5	-0.012368386
161	0x38a7b800	7.997453e-05
162	0xbca34fff	-0.019935606
163	0xbba5ba20	-0.005057588
164	0xbcab402e	-0.020904627
165	0xbc6feade	-0.014643399
166	0x3b976bd4	0.0046210084
167	0x3c88bb7f	0.016690968
168	0xbc61cb8c	-0.0137814395
169	0x3c393baa	0.011305729
170	0xbc4e64a0	-0.012597233
171	0xbb9414c0	-0.004519075
172	0x3b899b70	0.004199438
173	0x3c89288f	0.016742973
174	0x3ba14c98	0.0049224608
175	0xbba637d0	-0.0050725713
176	0x3c74c546	0.014939612
177	0xbb816cd0	-0.003949739
178	0x3c8b6a03	0.017018324
179	0x3c8a164f	0.01685634
180	0xbc960d4a	-0.018316884
181	0xbc0cf77a	-0.008603925
182	0x3b010290	0.0019685365
183	0x3b26d538	0.0025456678
184	0x3ba16da0	0.0049263984
185	0x3c370a3e	0.0111718755
186	0xbb14e2f0	-0.0022718273
187	0xbc0fa347	-0.008766956
188	0x3c8bd819	0.017070817
189	0xbc822a2a	-0.015889246
190	0x3b8f6040	0.0043754876
191	0x3c0288dc	0.0079672
192	0xbbbc2cbc	-0.0057426374
193	0x38a25d00	7.7420846e-05
194	0xbca1276a	-0.019672114
195	0xbc9a4f65	-0.018836686
196	0xbc7a8b0e	-0.015291942
197	0xbb6e6380	-0.0036375225
198	0xbb8b478c	-0.0042504724
199	0xbb4297f8	-0.0029692631
200	0x3c575db2	0.013144897
201	0x3a9b2fd0	0.0011839811
202	0xbca80166	-0.02050848
203	0x3b93bebc	0.0045088213
204	0x3c0b2f12	0.008495109
205	0x3a6dd200	0.0009072125
206	0x3c821921	0.015881123
207	0xbc4806ca	-0.01220865
208	0xbc72058d	-0.014771831
209	0xbc9523f0	-0.018205613
210	0x3c861671	0.016368123
211	0xbcac6b10	-0.021047145
212	0x3ca0cfbd	0.019630307
213	0x3c35692e	0.01107244
214	0x3bf1da0c	0.0073807295
215	0xbc341abd	-0.010992703
216	0xbb1c74d8	-0.0023873355
217	0x3c491782	0.012273671
218	0xba72e6e0	-0.00092659704
219	0xbba02a84	-0.0048878808
220	0xbb96a230	-0.004596971
221	0xbc39e283	-0.0113455085
222	0x3b8dbe30	0.0043256506
223	0xbc9f5356	-0.019448917
224	0xb99f2240	-0.00030352362
225	0xbb35df98	-0.002775168
226	0xbc78fb93	-0.015196699
227	0xbb862c68	-0.004094649
228	0x3c7b3882	0.015333297
229	0xbc1d873b	-0.009614761
230	0x39ac3800	0.0003284812
231	0x3be79740	0.007067591
232	0x3c46be82	0.012130382
233	0x3c89808f	0.016784934
234	0x3bb72084	0.005588593
235	0xbc6ea3d3	-0.014565426
236	0x3ba057f0	0.0048932955
237	0xbb5792c0	-0.0032893866
238	0xbc3f3793	-0.011670965
239	0x3caccec3	0.021094685
240	0xbc95c6d3	-0.018283283
241	0x3b27f878	0.0025630277
242	0xbb78ad48	-0.003794508
243	0x3caaf02d	0.020866478
244	0x3799ec00	1.8348917e-05
245	0xbc0ae81c	-0.008478191
246	0x3c843e7d	0.016143078
247	0x3be9574c	0.0071210023
248	0xbb61dcc8	-0.0034463871
249	0x3b1c8990	0.0023885705
250	0xbb14b030	-0.0022688024
251	0xbbcf909e	-0.0063343784
252	0xbaa7a220	-0.0012789406
253	0xbc49d9fe	-0.01232004
254	0x3c54032e	0.012940211
255	0xbc8a8721	-0.016910138

a1.bias f4 [64]
0	0x3ad689e0	0.0016367994
1	0x3c93a2ba	0.01802193
2	0x3ca059ae	0.019574013
3	0x3b7f4df6	0.003895638
4	0xbc442cd0	-0.011973575
5	0xba73c75c	-0.0009299421
6	0xbc9740cf	-0.01846352
7	0x3bfa60cc	0.0076409336
8	0x3bb71aa0	0.0055878907
9	0x3c8a0e13	0.016852414
10	0x3c881e19	0.016615914
11	0xbb7994c8	-0.0038083065
12	0xbc9142da	-0.017732073
13	0xbc77202a	-0.015083352
14	0x3c922391	0.017839225
15	0xbb268fa1	-0.00254152
16	0x3bb95b81	0.00565666
17	0x3ba58018	0.0050506704
18	0xbd5dafcb	-0.054122727
19	0x3d3f6a58	0.046732277
20	0xbb86b437	-0.0041108388
21	0x391d0d00	0.0001497753
22	0xbc7c21de	-0.015388934
23	0xbbe84b27	-0.007089037
24	0xbc2761a7	-0.010216153
25	0xbc7156c4	-0.014730159
26	0xbcad179a	-0.021129418
27	0x3c9bba19	0.019009637
28	0x3bd68044	0.006546052
29	0xbc2733be	-0.010205207
30	0x3d2fc5ee	0.04291337
31	0x3d114b82	0.0354724
32	0x3b7e9ec8	0.0038851965
33	0x3b9311ac	0.0044881906
34	0x3b1003e0	0.0021974966
35	0xbd4112e5	-0.04713716
36	0xbd406a9f	-0.04697668
37	0xbc419fce	-0.011817886
38	0xbc15b01f	-0.009136229
39	0xbc36c6e7	-0.01115582
40	0xbcf1df2a	-0.029525358
41	0x3ca1eecf	0.019767193
42	0xbc0802f0	-0.008301482
43	0x3d1ff547	0.039052274
44	0x3c857ab7	0.016293867
45	0x3cc95603	0.024577146
46	0x3c1dbcb0	0.009627506
47	0xbd033645	-0.032034177
48	0xbd623762	-0.0552286
49	0x3cd83745	0.026393542
50	0xbaf345ca	-0.0018560227
51	0x3947bd80	0.00019048713
52	0x3c345490	0.011006489
53	0xbbcc02a4	-0.0062259007
54	0xbbbae5d9	-0.0057036695
55	0x3c31289d	0.010812906
56	0xbbc9fa5c	-0.0061638784
57	0x3c3b674b	0.011438201
58	0x3c3f9c3a	0.011694962
59	0x3b8ac9e4	0.004235493
60	0x3ca79451	0.020456465
61	0x3b6a513a	0.0035753981
62	0xbafcb20b	-0.0019279135
63	0xbc95e523	-0.018297737

a2.weight f4 [9, 64]
0	0xbfbd1d82	-1.477463
1	0x3fcc1936	1.5945194
2	0x3fd43922	1.6579936
3	0x3fba943a	1.4576485
4	0xbfd046c0	-1.6271591
5	0xbfbdcd7c	-1.4828334
6	0x3fc64e7c	1.5492702
7	0xbfd4e084	-1.6631017
8	0x3fb9d302	1.451752
9	0xbfd6c5f4	-1.677916
10	0x3fbe1187	1.4849099
11	0x3fc4579a	1.5339234
12	0xbfcf958c	-1.6217513
13	0x3fcf6c3e	1.6204908
14	0xbfbbe93c	-1.4680552
15	0xbfb87c56	-1.4412944
16	0xbfc3e914	-1.5305505
17	0xbfd4b0de	-1.6616476
18	0xbfcadf4a	-1.5849392
19	0x3fc8e518	1.5694914
20	0x3fc12f28	1.5092516
21	0xbfcb0a1a	-1.5862458
22	0x3fccc382	1.5997164
23	0xbfd48fb4	-1.6606355
24	0xbfbbd782	-1.4675143
25	0xbfc832a0	-1.564045
26	0xbfcf4da4	-1.6195569
27	0x3fbfb4b8	1.4977026
28	0x3fbc000c	1.4687514
29	0x3fcad914	1.5847497
30	0x3fbd93d4	1.4810739
31	0x3fd7ff71	1.687483
32	0xbfbc7aa8	-1.4724932
33	0xbfc07912	-1.5036948
34	0xbfd62a4c	-1.6731658
35	0xbfd0f17f	-1.6323699
36	0xbfc5a30d	-1.5440384
37	0x3fd3e774	1.6555009
38	0xbfc62d94	-1.5482659
39	0xbfc5d124	-1.545445
40	0xbfce196a	-1.6101506
41	0x3fcf14b8	1.6178198
42	0x3fc7aec6	1.5600212
43	0x3fc2603a	1.5185616
44	0xbfcc95ae	-1.5983179
45	0x3fbd36d0	1.4782352
46	0xbfbd1858	-1.4773054
47	0xbfd189b4	-1.6370149
48	0x3fc92705	1.5715033
49	0x3fced6b6	1.6159275
50	0xbfcd967c	-1.6061549
51	0x3fca567e	1.5807645
52	0xbfc2eb7e	-1.5228117
53	0xbfd6f474	-1.6793351
54	0xbfce22f0	-1.6104412
55	0xbfc0f602	-1.5075076
56	0x3fc087ae	1.5041406
57	0x3fd81abc	1.6883159
58	0x3fb87bf2	1.4412825
59	0x3fc4e02c	1.5380912
60	0x3fbee5a6	1.4913833
61	0x3fcf3b24	1.6189923
62	0xbfd10fac	-1.6332908
63	0xbfcfcb8f	-1.6233996
64	0xbfc625d1	-1.5480291
65	0x3fc8d0eb	1.5688757
66	0x3fc60460	1.5470085
67	0x3fc6834b	1.5508817
68	0xbfb919dd	-1.4461018
69	0xbfc673c3	-1.5504078
70	0x3fc854a3	1.5650829
71	0xbfc59b77	-1.5438069
72	0x3fbad1cb	1.4595274
73	0xbfc281cb	-1.519586
74	0x3fba5657	1.4557599
75	0x3fc91ac7	1.5711297
76	0xbfb69d53	-1.4266762
77	0x3fd20769	1.6408511
78	0xbfbfc5ab	-1.4982198
79	0xbfb4b8b7	-1.411887
80	0xbfc7bebf	-1.5605086
81	0xbfcf6b85	-1.6204687
82	0xbfc23585	-1.5172583
83	0x3fc97b18	1.574069
84	0x3fc0f8fd	1.5075985
85	0xbfd38bdd	-1.6527058
86	0x3fb77cf1	1.4335004
87	0xbfcc58bf	-1.5964583
88	0xbfbb88ad	-1.4651085
89	0xbfcbbd67	-1.5917176
90	0xbfbbf59b	-1.4684328
91	0x3fc6ee3d	1.5541455
92	0x3fd16e2b	1.6361746
93	0x3fbcad6b	1.4740423
94	0x3fbb1441	1.4615556
95	0x3fd1186d	1.6335579
96	0xbfb5ce7b	-1.4203638
97	0xbfc63fdb	-1.5488237
98	0xbfb454ed	-1.4088417
99	0xbfb7d431	-1.4361631
100	0xbfba00a0	-1.4531441
101	0x3fd2cf3d	1.6469494
102	0xbfcb96bc	-1.5905375
103	0xbfc215fb	-1.5162958
104	0xbfca2631	-1.5792905
105	0x3fc834e9	1.5641147
106	0x3fd0b9b2	1.630667
107	0x3fb6b2d3	1.4273323
108	0xbfd152bd	-1.6353375
109	0x3fd35f3b	1.6513437
110	0xbfc442cf	-1.5332888
111	0xbfcd1bf1	-1.6024152
112	0x3fcee17b	1.6162561
113	0x3fcd81eb	1.6055273
114	0xbfbb7017	-1.4643582
115	0x3fb6e183	1.4287571
116	0xbfbf02af	-1.4922694
117	0xbfd33d4f	-1.6503085
118	0xbfb7b2d3	-1.4351448
119	0xbfc1a527	-1.5128525
120	0x3fb98855	1.449473
121	0x3fccf1e7	1.6011323
122	0x3fcc8195	1.5977045
123	0x3fc8a58b	1.567552
124	0x3fc76539	1.5577766
125	0x3fbd1725	1.4772688
126	0xbfce77b0	-1.6130276
127	0xbfca37b0	-1.5798244
128	0xbfb8d059	-1.4438583
129	0x3fd53793	1.6657585
130	0x3fbc9ec9	1.4735957
131	0x3fc1d21d	1.5142246
132	0xbfb6b9a1	-1.42754
133	0xbfcc69c1	-1.5969774
134	0x3fc8588f	1.5652026
135	0xbfcc007f	-1.5937651
136	0x3fbd36bd	1.478233
137	0xbfc4613d	-1.5342175
138	0x3fc6c2aa	1.5528157
139	0x3fccf9d5	1.6013743
140	0xbfc4cd73	-1.5375198
141	0x3fcf3a47	1.618966
142	0xbfc2d02d	-1.521978
143	0xbfd42551	-1.6573888
144	0xbfbaf321	-1.4605447
145	0xbfbcfaef	-1.4764079
146	0xbfb752fc	-1.43222
147	0x3fd14b73	1.635115
148	0x3fb74987	1.4319314
149	0xbfbf0def	-1.4926127
150	0x3fcb1515	1.5865809
151	0xbfbc81c2	-1.4727099
152	0xbfbc9d87	-1.4735574
153	0xbfbb3d6d	-1.4628121
154	0xbfd19611	-1.6373922
155	0x3fc4e407	1.5382088
156	0x3fb9fbf7	1.4530019
157	0x3fc8d595	1.569018
158	0x3fd390cf	1.6528567
159	0x3fc09e7b	1.5048364
160	0xbfc275c9	-1.5192195
161	0xbfc2856f	-1.5196971
162	0xbfbd6313	-1.479586
163	0xbfbaca01	-1.4592897
164	0xbfb8938d	-1.4420029
165	0x3fba6089	1.456071
166	0xbfc62fb3	-1.5483307
167	0xbfc60c6f	-1.5472544
168	0xbfc2a873	-1.5207657
169	0x3fb8b53f	1.4430312
170	0x3fcc7eef	1.5976237
171	0x3fd4b727	1.6618394
172	0xbfd22e75	-1.6420428
173	0x3fb7b22d	1.435125
174	0xbfc54b1f	-1.541355
175	0xbfcaf8b3	-1.5857147
176	0x3fbd0f77	1.4770344
177	0x3fce8f93	1.6137565
178	0xbfc8525b	-1.5650133
179	0x3fbcef39	1.4760505
180	0xbfc67a87	-1.5506142
181	0xbfd02119	-1.6260101
182	0xbfce8683	-1.61348
183	0xbfcaf71b	-1.5856661
184	0x3fc08f85	1.5043799
185	0x3fb87f0b	1.441377
186	0x3fc426ff	1.5324401
187	0x3fb5d91b	1.420688
188	0x3fd2740d	1.6441666
189	0x3fc06b9f	1.5032843
190	0xbfd0fc69	-1.632703
191	0xbfbbb751	-1.4665319
192	0xbfc3e199	-1.5303222
193	0x3fd30fe3	1.6489223
194	0x3fcd41bd	1.6035687
195	0x3fc0be83	1.505814
196	0xbfc993c9	-1.5748225
197	0xbfd69169	-1.6763126
198	0x3fc15767	1.5104798
199	0xbfcbce0f	-1.5922259
200	0x3fd073fd	1.6285397
201	0xbfd23985	-1.6423804
202	0x3fb996b7	1.449912
203	0x3fc07a2b	1.5037283
204	0xbfce45ce	-1.6115053
205	0x3fd6e8cd	1.6789795
206	0xbfc6b0bb	-1.5522684
207	0xbfd4f01f	-1.6635779
208	0xbfb9445f	-1.447399
209	0xbfbcbbc1	-1.4744798
210	0xbfbe731c	-1.4878879
211	0x3fd4aecb	1.6615843
212	0x3fc66311	1.5498983
213	0xbfce8957	-1.6135663
214	0x3fba892f	1.4573115
215	0xbfcb646d	-1.5890023
216	0xbfc27ed5	-1.5194956
217	0xbfd06913	-1.6282066
218	0xbfcbdd65	-1.5926939
219	0x3fc7556d	1.5572945
220	0x3fc67cc3	1.5506824
221	0x3fd29975	1.6453081
222	0x3fbf76c3	1.4958118
223	0x3fc7c785	1.5607764
224	0xbfd41325	-1.6568342
225	0xbfbdae5f	-1.4818839
226	0xbfbda105	-1.4814764
227	0xbfc5f396	-1.5464962
228	0xbfcbc3fd	-1.5919186
229	0x3fc7fa4f	1.5623263
230	0xbfcbc1bc	-1.5918498
231	0xbfbccb73	-1.4749588
232	0xbfccfb37	-1.6014165
233	0x3fc4ba2b	1.5369314
234	0x3fbf857a	1.4962609
235	0x3fce418e	1.6113756
236	0xbfc8cd5f	-1.5687674
237	0x3fcda3eb	1.6065649
238	0xbfd623d7	-1.6729687
239	0xbfd6f65d	-1.6793934
240	0x3fc99530	1.5748653
241	0x3fc867ef	1.5656718
242	0xbfc04127	-1.5019883
243	0x3fc6f2ef	1.5542887
244	0xbfd09f79	-1.6298667
245	0xbfcdaca1	-1.6068307
246	0xbfb9deeb	-1.4521154
247	0xbfbe68ed	-1.4875771
248	0x3fd6d1eb	1.6782812
249	0x3fce867b	1.613479
250	0x3fb99747	1.4499291
251	0x3fc7dd93	1.5614494
252	0x3fb8d2ed	1.443937
253	0x3fcca763	1.5988582
254	0xbfd179b3	-1.6365265
255	0xbfc08135	-1.5039431

a2.bias f4 [9]
0	0x3fc1ca3e	1.5139844
1	0x3fceaa4b	1.6145719
2	0x3fc38751	1.527567
3	0x3fbfaefb	1.4975275
4	0x3fc1e3b9	1.514762
5	0x3fc53aa3	1.540852
6	0x3fc196fe	1.5124204
7	0x3fcdad01	1.6068422
8	0xbe8e151d	-0.27750483
