Experiments/RL/models/Normal DQN/target_net.pth (torch, 576040 bytes, 4 tensors)

a1.weight f4 [64, 2232]
-0.020755997 0.01274473 -0.011403569 -0.0009262245 0.012845224 -0.00092332624 0.020500937 0.0005637631
-0.006458004 -0.01162952 0.0133340005 -0.016648397 0.017298413 0.018146673 0.019654969 -0.013196461
-0.014895981 0.0074964557 0.00972704 0.00082922354 0.01665462 0.016197374 -0.0022567362 0.0036697946
0.016296456 0.0033582114 -0.0079282075 0.008832939 -0.0017177276 -0.012445777 -0.011910892 0.0048089996
-0.002176514 0.013754351 0.012612173 0.011256734 0.015066953 0.001073692 -0.010451069 -0.015809443
-0.002492223 0.00029535778 -0.015131601 -0.004398916 0.003491735 -4.7985464e-05 -0.016770985 0.013347896
-0.0060650576 -0.004830694 -0.006896848 0.016143551 -0.019582037 -0.011656822 0.006779285 -0.020294044
0.015548537 0.015749617 -0.011682125 0.011197673 0.0016117506 -0.019132795 0.0071888044 -0.020046014
0.0069738347 -0.0023382604 -0.020657772 0.008354461 0.02081255 -0.010322102 -0.004869625 -0.0018719751
0.012647802 -0.015852833 -0.01002739 -0.01621518 -0.0054486543 -0.014171486 0.01856708 -0.010091171
-0.013515979 -0.01824635 0.0067033786 0.015067147 -0.007578712 -0.0063610896 -0.0059726154 0.016878864
0.008008126 -0.016719507 -0.005472973 0.0022471026 0.020571655 -0.020637315 -0.011992343 -0.0025815815
0.0041227546 -0.00020511076 -0.0140895955 -0.011193341 0.017665008 0.020728135 0.019958345 0.0006642211
-0.015524991 0.012227906 -0.0058004763 -0.015723713 0.009726904 -0.003338104 0.00034870766 -0.013711358
0.00032323785 0.012759803 0.0069638006 0.0026345905 -0.019092927 -0.010171123 -0.011604227 -0.01464175
-0.019311178 0.014734624 -0.016535427 0.006481342 0.019242087 0.0077970754 0.018798666 0.007934334
0.009030577 0.012674401 0.0017582551 0.0038275756 0.009908572 -0.015823703 -0.016593443 -0.016637817
-0.014975527 -0.010215225 0.019248804 0.019345818 0.01035771 -0.011206338 -0.018472198 0.0054052547
0.007124847 -0.006956245 -0.0041033365 0.0005898606 0.02090987 -0.014570336 0.021080716 -0.012767987
0.020651849 0.0021525342 -0.016736964 -0.0074511236 -0.020984793 -0.0039824937 0.015486022 -0.01010741
0.02008905 0.013783028 -0.00017465465 0.020314375 0.020160967 0.020553077 -0.020144755 -0.011655785
0.018875675 -0.00048231706 -0.008122978 0.004754197 -0.00045590103 0.017165756 0.0164647 0.008560007
-0.0110401055 0.005780028 0.00723275 -0.008289294 -0.020852182 0.01994413 -0.01842666 -0.0022466443
0.0018364489 0.0052752625 -0.0033753254 0.01613707 0.016965585 0.0016067307 0.00821224 0.019146388
-0.009245799 -0.0153230615 0.006996708 0.015111929 0.018154664 0.0078773815 0.004294036 0.0033592116
0.0010832641 -0.0035096984 0.016751302 -0.014744608 0.013039695 0.010565998 0.013768835 0.0023813173
-0.013845738 0.004910454 0.0011488926 -0.019653816 0.0052023605 0.0049921256 -0.017498467 0.020109227
-0.010308697 -0.004279686 -0.00319862 -0.0010894705 -0.016661592 0.020293826 -0.014852288 0.0026367493
-0.00011370145 -0.01133179 0.0074420124 0.010554532 0.006053908 -0.0034104884 -0.01587735 -0.02000889
-0.0067895604 0.0048220474 0.010575945 -0.005705689 -0.015678588 -0.014298886 0.01619994 -0.0046806447
0.01613692 0.009977788 -0.014484633 0.016132211 0.008816866 -0.013355346 -0.015056842 0.012648573
-0.015287317 0.004827855 0.016947294 0.017120058 -0.020125125 0.0069865696 0.016608512 -0.0057893107
00000000: 7b08 aabc 46cf 503c 09d6 3abc e0cd 72ba
00000010: c674 523c 600b 72ba 95f1 a73c 80c9 133a
00000020: aa9d d3bb be89 3ebc da76 5a3c 3862 88bc
00000030: 67b5 8d3c 55a8 943c 7503 a13c f835 58bc
00000040: 460e 74bc d4a4 f53b 2a5e 1f3c 4060 593a
00000050: 456f 883c 5bb0 843c c0e5 13bb f080 703b
00000060: 2580 853c 7015 5c3b 50e5 01bc 08b8 103c
00000070: 6025 e1ba 5fe9 4bbc e725 43bc d094 9d3b
00000080: d8a3 0ebb ee59 613c 4aa3 4e3c 2a6e 383c
00000090: 62db 763c 20bb 8c3a f63a 2bbc ce82 81bc
000000a0: 9054 23bb 40da 9a39 89ea 77bc c824 90bb
000000b0: 98d5 643b 0044 49b8 4e63 89bc 22b1 5a3c
000000c0: 64bd c6bb cc4a 9ebb f4fe e1bb 7b3f 843c
000000d0: 826a a0bc 41fc 3ebc c424 de3b b23f a6bc
000000e0: 4abf 7e3c 5705 813c 6266 3fbc 7276 373c
000000f0: 6041 d33a 61bc 9cbc 1090 eb3b 8a37 a4bc
00000100: c484 e43b 803d 19bb 7d3a a9bc 26e1 083c
00000110: 157f aa3c 091e 29bc 6091 9fbb 105d f5ba
00000120: ba38 4f3c cddd 81bc ec49 24bc b2d5 84bc
00000130: a08a b2bb 852f 68bc fd19 983c 7055 25bc
00000140: 2072 5dbc 5f79 95bc 04a8 db3b 32dc 763c
00000150: d856 f8bb b070 d0bb eeb5 c3bb 8b45 8a3c
00000160: 8434 033c 59f7 88bc a056 b3bb 2044 133b
00000170: e385 a83c 960f a9bc 887b 44bc c02f 29bb
00000180: 2c18 873b 0013 57b9 0cd8 66bc 4664 37bc
00000190: 35b6 903c 0dce a93c af7f a33c 201f 2e3a
000001a0: 885c 7ebc 8e57 483c ec11 bebb 04cf 80bc
000001b0: 985d 1f3c 18c4 5abb c0d2 b639 9ba5 60bc
000001c0: 4078 a939 7e0e 513c 9830 e43b 18a9 2c3b
000001d0: c568 9cbc c8a4 26bc a81f 3ebc f3e3 6fbc
000001e0: 7a32 9ebc 7e69 713c 4e75 87bc 7061 d43b
000001f0: 95a1 9d3c 9c7e ff3b a9ff 993c 02ff 013c
00000200: fcf4 133c 4aa8 4f3c 4075 e63a 10d8 7a3b
00000210: 9057 223c b6a0 81bc f9ee 87bc 084c 88bc
00000220: ea5b 75bc c25d 27bc abaf 9d3c 1f7b 9e3c
00000230: 62b3 293c ca9a 37bc 0253 97bc 901e b13b
00000240: 8c77 e93b 36f1 e3bb 4875 86bb e0a0 1a3a
00000250: 2d4b ab3c 6bb8 6ebc 77b1 ac3c d230 51bc
00000260: 112e a93c 8811 0d3b f51b 89bc 8e28 f4bb
00000270: 4de8 abbc 947f 82bb 16b9 7d3c 8d99 25bc
00000280: cb91 a43c 36d2 613c 8023 37b9 556a a63c
00000290: 9d28 a53c ed5e a83c 9d06 a5bc e8f7 3ebc
000002a0: 29a1 9a3c 80df fcb9 3d16 05bc 18c9 9b3b
000002b0: 0006 efb9 339f 8c3c fbe0 863c 463f 0c3c
000002c0: 8fe1 34bc 6466 bd3b b400 ed3b d2cf 07bc
000002d0: 32d2 aabc df61 a33c 82f3 96bc 703c 13bb
000002e0: 00b5 f03a 1cdc ac3b 9034 5dbb e331 843c
000002f0: 69fb 8a3c f098 d23a a28c 063c e3d8 9c3c
00000300: b17b 17bc 940d 7bbc a444 e53b 0698 773c
00000310: 17b9 943c 2210 013c fcb4 8c3b 3826 5c3b
00000320: 50fc 8d3a f802 66bb 073a 893c 5e93 71bc
00000330: 72a4 553c 021d 2d3c ae96 613c e00f 1c3b
00000340: 3cd9 62bc e0e7 a03b 7096 963a 0a01 a1bc
00000350: 9078 aa3b fc94 a33b f258 8fbc 1bbc a43c
00000360: cfe5 28bc 9c3c 8cbb f09f 51bb 90cc 8eba
00000370: e47d 88bc 3d3f a63c 0357 73bc 50cd 2c3b
00000380: 0073 eeb8 f9a8 39bc 20dc f33b eaec 2c3c
00000390: dc5f c63b 8082 5fbb 3711 82bc afe9 a3bc
000003a0: f67a debb 4402 9e3b ba46 2d3c caf6 babb
000003b0: 6270 80bc e045 6abc bdb5 843c 1860 99bb
000003c0: 9331 843c e079 233c f450 6dbc b327 843c
000003d0: 9e74 103c 62d0 5abc f9b0 76bc f63b 4f3c
000003e0: a877 7abc fc32 9e3b 0dd5 8a3c 5d3f 8c3c
000003f0: 72dd a4bc 98ef e43b 930e 883c 42b4 bdbb

a1.bias f4 [64]
0.00088563375 0.016523594 -0.039137833 0.005453233 0.039765257 -0.0038078919 -0.004690681 -0.024533102
-0.004230343 0.02760831 0.014735563 0.0097024795 0.003214941 -0.0025356598 0.020301368 -0.019018544
-0.019871652 0.007549207 -0.0006524248 -0.0036661532 -0.019652171 0.009236159 -0.016345073 0.01796442
-0.013035916 -0.021121394 0.05226292 0.0072595654 0.0144880535 -0.01560596 -0.015521044 0.008274997
0.01744114 0.0036088582 0.013369859 -0.045447003 -0.017106393 0.0058743805 -0.014996834 -0.00058912754
-0.020173382 -0.019807613 -0.027071903 -0.00926721 0.020284023 -0.0005824335 -0.011494914 -0.010750567
0.02013268 -0.061954334 -0.021084972 -0.010951438 0.009519268 0.016202435 -0.03584555 0.013639078
-0.011337667 0.046953287 -0.011125169 0.0075160414 -0.024597397 0.00892278 -0.0052739424 0.010398554
00000000: e029 683a 7d5c 873c fe4e 20bd 09b1 b23b
00000010: e5e0 223d d38d 79bb 49b4 99bb a5f9 c8bc
00000020: b09e 8abb d32a e23c 6e6d 713c 26f7 1e3c
00000030: c2b1 523b 502d 26bb 0e4f a63c c7cc 9bbc
00000040: e0c9 a2bc 575f f73b 7d07 2bba d843 70bb
00000050: 97fd a0bc 4253 173c 1ae6 85bc 1f2a 933c
00000060: 9894 55bc c606 adbc a511 563d a6e1 ed3b
00000070: 4d5f 6d3c 24b0 7fbc fa4b 7ebc da93 073c
00000080: b9e0 8e3c 9882 6c3b 410d 5b3c a326 3abd
00000090: b522 8cbc e07d c03b 48b5 75bc ae6f 1aba
000000a0: a642 a5bc 9343 a2bc e5c5 ddbc 7fd5 17bc
000000b0: ae2a a63c 73ae 18ba 2a55 3cbc 2523 30bc
000000c0: 4aed a43c d4c3 7dbd 64ba acbc a96d 33bc
000000d0: b4f6 1b3c f8ba 843c c9d2 12bd 7076 5f3c
000000e0: 9fc1 39bc 1752 403d 5746 36bc 2049 f63b
000000f0: 7b80 c9bc da30 123c 09d1 acbb b25e 2a3c

a2.weight f4 [9, 64]
-1.5819741 1.596094 -1.4653671 1.6115849 1.4710287 1.635638 -1.5098119 -1.6291186
-1.5466331 1.6108458 1.6158932 -1.6596653 1.6599485 1.5479335 1.5803208 -1.5806828
-1.6380944 -1.6283848 1.6531501 1.6256115 -1.6279953 1.4439845 1.5032278 -1.5230184
1.6587144 -1.5683213 1.5628763 -1.5032134 -1.4149557 -1.6103987 1.4627118 1.6041073
-1.6088967 -1.5459849 -1.5070374 -1.4324108 -1.4965335 -1.4455235 1.612841 1.5415288
1.4451861 -1.5530118 -1.6141981 -1.5983104 1.658253 1.5871656 -1.578088 1.6457803
1.5892808 -1.4563076 -1.4443578 1.4224081 -1.5542039 1.6419662 -1.5674989 1.5632336
-1.5443656 1.4732654 -1.4574339 -1.5490025 -1.4770921 1.5390003 1.4694397 1.5587975
-1.5101426 1.4617805 -1.472508 1.5493131 1.4500768 1.4284588 -1.5416648 -1.5741448
-1.4218526 1.4471235 1.6189725 -1.5814617 1.455404 1.5645545 1.4472158 -1.437711
-1.6352664 -1.4010929 1.4959154 1.5790291 -1.5463841 1.6218569 1.5546055 -1.463799
1.5477905 -1.5543139 1.6383171 -1.6021585 -1.490196 -1.433254 1.418195 1.493429
-1.6161892 -1.6514101 -1.5488296 -1.48444 -1.4590001 -1.544698 1.5796268 1.613775
1.5468516 -1.6308901 -1.6193287 -1.4902449 1.5027905 1.4782476 -1.5848053 1.5510116
1.4767675 -1.5047178 -1.4098945 1.4871359 -1.6062622 1.5703835 -1.4027649 1.6492772
-1.5797863 1.4116342 -1.499114 -1.4434166 -1.5627832 1.6090314 1.5196518 1.5510213
-1.4594792 1.5482053 -1.5498631 1.5193251 1.4769639 1.6224179 -1.607953 -1.5960733
-1.4237448 1.4575546 1.5805663 -1.6495763 1.4301754 1.4440433 1.5606099 -1.4183015
-1.5890572 -1.6225152 1.4785322 1.504712 -1.4873601 1.4160463 1.6260277 -1.4833571
1.52782 -1.4492508 1.6175445 -1.5021142 -1.4008902 -1.6319817 1.647106 1.5649942
-1.4330088 -1.4715556 -1.5152079 -1.5939835 -1.5834509 -1.5183922 1.5455626 1.5123261
1.5109981 -1.548767 -1.5129806 -1.5064201 1.5596849 1.4194239 -1.6186935 1.4221662
1.4866201 -1.5905162 -1.5554489 1.4653131 -1.5676786 1.4038472 -1.4993994 1.6392049
-1.4099509 1.6363949 -1.6024762 -1.5813178 -1.4041104 1.4368335 1.4062965 1.646732
-1.5234636 1.6097492 -1.5930301 1.5460597 1.6345116 1.5689071 -1.6502358 -1.584203
-1.5822335 1.5125015 1.639433 -1.5437454 1.4487253 1.5299157 1.5047876 -1.5676957
-1.6235797 -1.560582 1.5973436 1.4919125 -1.6389337 1.4882637 1.5258666 -1.4928344
1.4758955 -1.6020173 1.451969 -1.5905374 -1.5259382 -1.5483273 1.614232 1.5445503
-1.6405655 -1.4822556 -1.6241764 -1.5517676 -1.5958804 -1.6078478 1.4637674 1.6422855
1.5675701 -1.4342982 -1.59275 -1.4231614 1.4335312 1.5422331 -1.6464361 1.5198458
1.5835041 -1.640437 -1.477166 1.4136707 -1.4280912 1.633847 -1.545019 1.5591601
-1.5141181 1.5337018 -1.6052433 -1.6512011 -1.5690918 1.6417958 1.5649431 1.6325871
00000000: 217e cabf cf4c cc3f 2691 bbbf 6a48 ce3f
00000010: ab4a bc3f 965c d13f 8441 c1bf f586 d0bf
00000020: 13f8 c5bf 3230 ce3f 97d5 ce3f ea6f d4bf
00000030: 3179 d43f af22 c63f f447 ca3f d053 cabf
00000040: 14ad d1bf ea6e d0bf 6c9a d33f 0a14 d03f
00000050: 2662 d0bf 7cd4 b83f c569 c03f 44f2 c2bf
00000060: c150 d43f c1be c8bf 550c c83f 4c69 c0bf
00000070: 451d b5bf 8b21 cebf 243a bb3f 6353 cd3f
00000080: 54f0 cdbf d5e2 c5bf 9ae6 c0bf 3d59 b7bf
00000090: 698e bfbf ea06 b9bf 9371 ce3f d150 c53f
000000a0: dcfb b83f 17c9 c6bf 0b9e cebf 6f95 ccbf
000000b0: a241 d43f 3e28 cb3f cafe c9bf eea8 d23f
000000c0: 8e6d cb3f 4a68 babf b7e0 b8bf 7811 b63f
000000d0: 27f0 c6bf f32b d23f cea3 c8bf 0a18 c83f
000000e0: c6ad c5bf f693 bc3f 328d babf b745 c6bf
000000f0: 5b11 bdbf f6fd c43f 9a16 bc3f ad86 c73f
00000100: 5a4c c1bf a01b bb3f 247b bcbf e44f c63f
00000110: 1e9c b93f bdd7 b63f 4655 c5bf 947d c9bf
00000120: 44ff b5bf 583b b93f 7e3a cf3f 566d cabf
00000130: ae4a ba3f 5243 c83f 5e3e b93f ea06 b8bf
00000140: 6950 d1bf 0357 b3bf 287a bf3f a01d ca3f
00000150: eaef c5bf 0299 cf3f 50fd c63f c45d bbbf
00000160: 001e c63f c2f3 c6bf 60b4 d13f 8813 cdbf
00000170: bebe bebf de74 b7bf 6a87 b53f ae28 bf3f
00000180: 4adf cebf 6861 d3bf 0c40 c6bf 2102 bebf
00000190: 84c0 babf aab8 c5bf 3631 ca3f 2e90 ce3f
000001a0: 3cff c53f 02c1 d0bf 2a46 cfbf 58c0 bebf
000001b0: 705b c03f 3837 bd3f e6da cabf 8c87 c63f
000001c0: b806 bd3f 989a c0bf 6c77 b4bf 785a be3f
000001d0: 009a cdbf 5402 c93f cd8d b3bf 841b d33f
000001e0: 7036 cabf 6eb0 b43f f8e2 bfbf e0c1 b8bf
000001f0: 4809 c8bf bef4 cd3f f383 c23f de87 c63f
00000200: 37d0 babf 972b c63f ea61 c6bf 3f79 c23f
00000210: 270d bd3f 64ab cf3f 67d1 cdbf 214c ccbf
00000220: 453d b6bf 2691 ba3f ff4f ca3f 5125 d3bf
00000230: fd0f b73f 69d6 b83f 11c2 c73f e78a b5bf
00000240: 3a66 cbbf 94ae cfbf 8b40 bd3f 679a c03f
00000250: d161 bebf 0141 b53f ad21 d03f a5de bdbf
00000260: 9b8f c33f 0d81 b9bf b30b cf3f 4745 c0bf
00000270: 5f50 b3bf c7e4 d0bf 5fd4 d23f bb51 c83f
00000280: d56c b7bf ef5b bcbf 55f2 c1bf a707 ccbf
00000290: 85ae cabf ad5a c2bf ffd4 c53f e793 c13f
000002a0: 6368 c13f ff3d c6bf 59a9 c1bf 60d2 c0bf
000002b0: c1a3 c73f afaf b53f 5931 cfbf 8b09 b63f
000002c0: 9149 be3f 0996 cbbf f318 c7bf 618f bb3f
000002d0: b1a9 c8bf 44b1 b33f 52ec bfbf 77d1 d13f
000002e0: 4579 b4bf 6375 d13f f11d cdbf 9f68 cabf
000002f0: e4b9 b3bf 29ea b73f 8601 b43f 1dc8 d23f
00000300: db00 c3bf 430c ce3f 69e8 cbbf 49e5 c53f
00000310: ad37 d13f f3d1 c83f ed3a d3bf 2ac7 cabf
00000320: a186 cabf a699 c13f f1d8 d13f 7399 c5bf
00000330: d56f b93f 47d4 c33f e19c c03f 41aa c8bf
00000340: 76d1 cfbf 27c1 c7bf c175 cc3f fdf6 be3f
00000350: 94c8 d1bf 6d7f be3f 994f c33f 3315 bfbf
00000360: 25ea bc3f e70e cdbf 1fda b93f bb96 cbbf
00000370: f151 c3bf 972f c6bf 279f ce3f d3b3 c53f
00000380: 0dfe d1bf 8dba bdbf 03e5 cfbf 52a0 c6bf
00000390: cf45 ccbf f5cd cdbf bb5c bb3f 6936 d23f
000003a0: 23a6 c83f 1597 b7bf 3bdf cbbf 272a b6bf
000003b0: f37d b73f e567 c53f 6bbe d2bf 4f8a c23f
000003c0: 43b0 ca3f d7f9 d1bf c713 bdbf 29f3 b43f
000003d0: b1cb b6bf e621 d13f 2fc3 c5bf 8f92 c73f
000003e0: 9fce c1bf 5750 c43f 9d78 cdbf 8f5a d3bf
000003f0: 00d8 c8bf 5d26 d23f 0e50 c83f 9df8 d03f

a2.bias f4 [9]
1.4926928 1.5221372 1.5231961 1.4278108 1.5697005 1.6280938 1.4558475 1.4773899
-0.18718776
00000000: 8f10 bf3f 64d5 c23f 17f8 c23f 81c2 b63f
00000010: f2eb c83f 6165 d03f 3659 ba3f 1d1b bd3f
00000020: 26ae 3fbe
