Experiments/RL/models/Normal DQN/target_net.pth (torch, 576040 bytes, 4 tensors)

a1.weight f4 [64, 2232]
-0.0031585358 0.01899956 -0.012165192 -0.017072404 0.0041683726 0.0029285606 0.011214236 -0.015737351
0.009808 0.008110791 -0.011369331 0.007662425 -0.008466374 -0.013508465 0.008586692 -0.016977333
0.01051425 0.012635356 -0.013530789 0.014037771 -0.0045452565 -0.016243547 -0.00014997832 -0.020865692
0.014160497 0.016935276 0.008977262 0.00413551 -0.020634877 -0.0013303459 -0.014480304 -0.020819588
-0.0189317 -0.01939751 0.007948747 0.00035055727 0.014504196 -0.016510475 -0.015607299 -0.005958248
-0.010907919 0.016871857 -0.016619071 -0.012862549 0.0141052175 -0.009585327 0.015040709 -0.016863164
0.0011780076 -0.00787749 0.008444818 -0.0050686784 -0.017185437 -0.00020903535 -0.015305098 -0.010441067
-0.019328993 -0.010111195 0.0005055517 0.013250647 -0.011112004 -0.0023333821 0.0030059814 0.015370989
0.006601976 0.009355821 -0.01783878 0.02112273 -0.019717705 0.006217813 0.0056279283 0.012574827
-0.01783562 -0.0018514115 -0.0013310462 -0.01518075 -0.0028449502 -0.0038111918 -0.008391582 0.012762258
-0.01547756 -0.004438922 0.01908368 -0.012847309 0.0111732725 -0.0017529186 -0.0054153297 -0.010413447
-0.017197268 0.000726074 0.019975109 -0.015774347 0.008399934 0.015077742 0.0005851798 -0.011289672
0.006920684 0.014245862 -0.008914648 0.0021634977 0.019466268 0.021139221 -0.0051193535 -0.009878566
-0.018806444 0.018176978 0.008819334 -0.012927298 -0.00043326057 -0.0009560175 -0.011119785 -0.018392181
-0.0038595796 0.0046649203 0.017340744 0.009264078 0.020537095 -0.018743 0.0055069644 -0.014703458
0.003447026 0.009459488 0.0074945316 0.014508048 0.0041778274 0.019725526 -0.00052215904 0.011795433
-0.02000748 0.014160546 -0.00740142 0.013333889 -0.0202962 0.015615018 0.018796748 0.016937355
4.2537227e-05 0.018224424 0.011402244 -0.017008701 0.004749775 9.754114e-05 -0.00314793 -0.010340321
-0.0142529495 -0.021086877 -0.01054254 -0.017362025 -0.010161625 -0.019562088 0.016345238 0.0079489965
-0.0022461638 0.016721407 -0.008423093 0.0009502601 0.009327119 0.018778885 0.010010237 -0.0036650281
-0.012368386 7.997453e-05 -0.019935606 -0.005057588 -0.020904627 -0.014643399 0.0046210084 0.016690968
-0.0137814395 0.011305729 -0.012597233 -0.004519075 0.004199438 0.016742973 0.0049224608 -0.0050725713
0.014939612 -0.003949739 0.017018324 0.01685634 -0.018316884 -0.008603925 0.0019685365 0.0025456678
0.0049263984 0.0111718755 -0.0022718273 -0.008766956 0.017070817 -0.015889246 0.0043754876 0.0079672
-0.0057426374 7.7420846e-05 -0.019672114 -0.018836686 -0.015291942 -0.0036375225 -0.0042504724 -0.0029692631
0.013144897 0.0011839811 -0.02050848 0.0045088213 0.008495109 0.0009072125 0.015881123 -0.01220865
-0.014771831 -0.018205613 0.016368123 -0.021047145 0.019630307 0.01107244 0.0073807295 -0.010992703
-0.0023873355 0.012273671 -0.00092659704 -0.0048878808 -0.004596971 -0.0113455085 0.0043256506 -0.019448917
-0.00030352362 -0.002775168 -0.015196699 -0.004094649 0.015333297 -0.009614761 0.0003284812 0.007067591
0.012130382 0.016784934 0.005588593 -0.014565426 0.0048932955 -0.0032893866 -0.011670965 0.021094685
-0.018283283 0.0025630277 -0.003794508 0.020866478 1.8348917e-05 -0.008478191 0.016143078 0.0071210023
-0.0034463871 0.0023885705 -0.0022688024 -0.0063343784 -0.0012789406 -0.01232004 0.012940211 -0.016910138
00000000: 70ff 4ebb f7a4 9b3c 8350 47bc 6ddb 8bbc
00000010: d896 883b 18ed 3f3b eabb 373c 9eeb 80bc
00000020: bcb1 203c 20e3 043c 6e46 3abc 1415 fb3b
00000030: 8cb6 0abc 9c52 5dbc 32af 0c3c 0c14 8bbc
00000040: f643 2c3c 8604 4f3c 3eb0 5dbc aefe 653c
00000050: 60f0 94bb 3011 85bc 8043 1db9 87ee aabc
00000060: 6e01 683c d9bb 8a3c 5e15 133c 2c83 873b
00000070: 790a a9bc 005f aeba cc3e 6dbc d78d aabc
00000080: a716 9bbc 87e7 9ebc 763b 023c 00cb b739
00000090: 02a3 6d3c fa40 87bc c2b5 7fbc 683d c3bb
000000a0: 21b7 32bc d936 8a3c b824 88bc 71bd 52bc
000000b0: 9219 673c c60b 1dbc 4e6d 763c 9e24 8abc
000000c0: 6067 9a3a 9610 01bc 225c 0a3c 2817 a6bb
000000d0: 79c8 8cbc 8030 5bb9 3cc2 7abc 0211 2bbc
000000e0: d657 9ebc 6da9 25bc 0087 043a 3e19 593c
000000f0: 1f0f 36bc a8eb 18bb 0000 453b 9ad6 7b3c
00000100: 6455 d83b 2849 193c a222 92bc 9309 ad3c
00000110: 0687 a1bc ccbe cb3b 7c6a b83b a606 4e3c
00000120: 021c 92bc 10ab f2ba 8076 aeba aeb8 78bc
00000130: 5872 3abb 30c5 79bb d97c 09bc ca18 513c
00000140: 9895 7dbc 6074 91bb 6155 9c3c 857d 52bc
00000150: 1a10 373c 30c2 e5ba 1473 b1bb 2a9d 2abc
00000160: 49e1 8cbc 0056 3e3a d7a2 a33c 3439 81bc
00000170: e09f 093c a208 773c c066 193a 51f8 38bc
00000180: e8c6 e23b 7a67 693c be0e 12bc 78c9 0d3b
00000190: b977 9f3c 292c ad3c 40c0 a7bb b5d9 21bc
000001a0: f90f 9abc e3e7 943c f87e 103c 05cd 53bc
000001b0: 4027 e3b9 409d 7aba c22f 36bc 33ab 96bc
000001c0: 00f1 7cbb 30dc 983b 2d0e 8e3c 5cc8 173c
000001d0: 693d a83c ec8a 99bc c473 b43b c6e6 70bc
000001e0: 80e7 613b f8fb 1a3c b094 f53b 2ab3 6d3c
000001f0: 28e6 883b 6d97 a13c 80e1 08ba a241 413c
00000200: bae6 a3bc a201 683c 9c87 f2bb 6276 5a3c
00000210: 3744 a6bc 22d6 7f3c a3fb 993c 35c0 8a3c
00000220: 006a 3238 634b 953c 7ad0 3a3c d555 8bbc
00000230: 00a4 9b3b 008f cc38 804d 4ebb 736a 29bc
00000240: 3485 69bc 63be acbc 9eba 2cbc ce3a 8ebc
00000250: f27c 26bc ac40 a0bc 73e6 853c 823c 023c
00000260: 6034 13bb 55fb 883c 0301 0abc e01a 793a
00000270: c6d0 183c 2dd6 993c fa01 243c f830 70bb
00000280: c5a4 4abc 00b8 a738 ff4f a3bc 20ba a5bb
00000290: 2e40 abbc deea 6fbc d46b 973b 7fbb 883c
000002a0: 8ccb 61bc aa3b 393c a064 4ebc c014 94bb
000002b0: 709b 893b 8f28 893c 984c a13b d037 a6bb
000002c0: 46c5 743c d06c 81bb 036a 8b3c 4f16 8a3c
000002d0: 4a0d 96bc 7af7 0cbc 9002 013b 38d5 263b
000002e0: a06d a13b 3e0a 373c f0e2 14bb 47a3 0fbc
000002f0: 19d8 8b3c 2a2a 82bc 4060 8f3b dc88 023c
00000300: bc2c bcbb 005d a238 6a27 a1bc 654f 9abc
00000310: 0e8b 7abc 8063 6ebb 8c47 8bbb f897 42bb
00000320: b25d 573c d02f 9b3a 6601 a8bc bcbe 933b
00000330: 122f 0b3c 00d2 6d3a 2119 823c ca06 48bc
00000340: 8d05 72bc f023 95bc 7116 863c 106b acbc
00000350: bdcf a03c 2e69 353c 0cda f13b bd1a 34bc
00000360: d874 1cbb 8217 493c e0e6 72ba 842a a0bb
00000370: 30a2 96bb 83e2 39bc 30be 8d3b 5653 9fbc
00000380: 4022 9fb9 98df 35bb 93fb 78bc 682c 86bb
00000390: 8238 7b3c 3b87 1dbc 0038 ac39 4097 e73b
000003a0: 82be 463c 8f80 893c 8420 b73b d3a3 6ebc
000003b0: f057 a03b c092 57bb 9337 3fbc c3ce ac3c
000003c0: d3c6 95bc 78f8 273b 48ad 78bb 2df0 aa3c
000003d0: 00ec 9937 1ce8 0abc 7d3e 843c 4c57 e93b
000003e0: c8dc 61bb 9089 1c3b 30b0 14bb 9e90 cfbb
000003f0: 20a2 a7ba fed9 49bc 2e03 543c 2187 8abc

a1.bias f4 [64]
0.0016367994 0.01802193 0.019574013 0.003895638 -0.011973575 -0.0009299421 -0.01846352 0.0076409336
0.0055878907 0.016852414 0.016615914 -0.0038083065 -0.017732073 -0.015083352 0.017839225 -0.00254152
0.00565666 0.0050506704 -0.054122727 0.046732277 -0.0041108388 0.0001497753 -0.015388934 -0.007089037
-0.010216153 -0.014730159 -0.021129418 0.019009637 0.006546052 -0.010205207 0.04291337 0.0354724
0.0038851965 0.0044881906 0.0021974966 -0.04713716 -0.04697668 -0.011817886 -0.009136229 -0.01115582
-0.029525358 0.019767193 -0.008301482 0.039052274 0.016293867 0.024577146 0.009627506 -0.032034177
-0.0552286 0.026393542 -0.0018560227 0.00019048713 0.011006489 -0.0062259007 -0.0057036695 0.010812906
-0.0061638784 0.011438201 0.011694962 0.004235493 0.020456465 0.0035753981 -0.0019279135 -0.018297737
00000000: e089 d63a baa2 933c ae59 a03c f64d 7f3b
00000010: d02c 44bc 5cc7 73ba cf40 97bc cc60 fa3b
00000020: a01a b73b 130e 8a3c 191e 883c c894 79bb
00000030: da42 91bc 2a20 77bc 9123 923c a18f 26bb
00000040: 815b b93b 1880 a53b cbaf 5dbd 586a 3f3d
00000050: 37b4 86bb 000d 1d39 de21 7cbc 274b e8bb
00000060: a761 27bc c456 71bc 9a17 adbc 19ba 9b3c
00000070: 4480 d63b be33 27bc eec5 2f3d 824b 113d
00000080: c89e 7e3b ac11 933b e003 103b e512 41bd
00000090: 9f6a 40bd ce9f 41bc 1fb0 15bc e7c6 36bc
000000a0: 2adf f1bc cfee a13c f002 08bc 47f5 1f3d
000000b0: b77a 853c 0356 c93c b0bc 1d3c 4536 03bd
000000c0: 6237 62bd 4537 d83c ca45 f3ba 80bd 4739
000000d0: 9054 343c a402 ccbb d9e5 babb 9d28 313c
000000e0: 5cfa c9bb 4b67 3b3c 3a9c 3f3c e4c9 8a3b
000000f0: 5194 a73c 3a51 6a3b 0bb2 fcba 23e5 95bc

a2.weight f4 [9, 64]
-1.4792632 1.5963196 1.6597937 1.4594487 -1.6289593 -1.4846336 1.5510703 -1.6649019
1.4535521 -1.6797162 1.4867101 1.5357236 -1.6235515 1.622291 -1.4698554 -1.4430946
-1.5323507 -1.6634477 -1.5867394 1.5712916 1.5110518 -1.588046 1.6015166 -1.6624357
-1.4693145 -1.5658451 -1.6213571 1.4995028 1.4705516 1.5865499 1.482874 1.6892831
-1.4742934 -1.505495 -1.674966 -1.63417 -1.5458386 1.6573011 -1.5500661 -1.5472451
-1.6119508 1.61962 1.5618213 1.5203618 -1.600118 1.4800354 -1.4791056 -1.638815
1.5697032 1.6177276 -1.6079551 1.5825647 -1.5246118 -1.6811353 -1.6122414 -1.5093077
1.5059408 1.690116 1.4430827 1.5398914 1.4931835 1.6207925 -1.635091 -1.6251998
-1.547854 1.5687006 1.5468334 1.5507066 -1.4459267 -1.5502326 1.5649078 -1.5436318
1.4593523 -1.5194108 1.4555848 1.5709546 -1.426501 1.640676 -1.4980447 -1.4117119
-1.5603335 -1.6202936 -1.5170832 1.5738939 1.5074234 -1.6525307 1.4333253 -1.5962832
-1.4649334 -1.5915425 -1.4682577 1.5539703 1.6359994 1.4738672 1.4613805 1.6333828
-1.4201887 -1.5486486 -1.4086666 -1.435988 -1.452969 1.6467743 -1.5903624 -1.5161207
-1.5791154 1.5639396 1.6304919 1.4271572 -1.6351624 1.6511686 -1.5331137 -1.6022401
1.6164315 1.6053522 -1.4641831 1.428582 -1.4920943 -1.6501334 -1.4349697 -1.5126774
1.4492979 1.6009572 1.5975294 1.5673769 1.5576015 1.4770937 -1.6128525 -1.5796493
-1.4445378 1.666438 1.4742752 1.5149041 -1.4282194 -1.5976568 1.5658821 -1.5944446
1.4789125 -1.534897 1.5534952 1.6020538 -1.5381993 1.6196455 -1.5226575 -1.6580683
-1.4612242 -1.4770874 -1.4328995 1.6357945 1.4326109 -1.4932922 1.5872604 -1.4733894
-1.4742368 -1.4634916 -1.6380717 1.5388883 1.4536813 1.5696975 1.6535362 1.5055159
-1.519899 -1.5203766 -1.4802655 -1.4599692 -1.4426824 1.4567505 -1.5490102 -1.5479339
-1.5214452 1.4437107 1.5983032 1.6625189 -1.6427222 1.4358045 -1.5420345 -1.5863942
1.476355 1.614436 -1.5656928 1.47673 -1.5512937 -1.6266896 -1.6141595 -1.5863456
1.5050594 1.4420565 1.5331196 1.4213675 1.6448461 1.5039638 -1.6333824 -1.4672114
-1.5309863 1.6495864 1.6042328 1.5064781 -1.5754867 -1.6769767 1.5111439 -1.59289
1.6292038 -1.6430445 1.4505761 1.5043924 -1.6121694 1.6796436 -1.5529325 -1.664242
-1.4480631 -1.4751439 -1.488552 1.6622484 1.5505624 -1.6142304 1.4579756 -1.5896664
-1.5201597 -1.6288707 -1.593358 1.5579586 1.5513465 1.6459723 1.4964759 1.5614405
-1.6574984 -1.482548 -1.4821405 -1.5471603 -1.5925827 1.5629904 -1.5925139 -1.4756229
-1.6020806 1.5375955 1.496925 1.6120397 -1.5694315 1.607229 -1.6736329 -1.6800575
1.5742013 1.5663359 -1.5026524 1.5549529 -1.6305308 -1.6074948 -1.4527795 -1.4882412
1.6789453 1.6141431 1.4505932 1.5621135 1.444601 1.5995224 -1.6371906 -1.5046072
00000000: 7f58 bdbf 3354 cc3f 1f74 d43f 37cf ba3f
00000010: bd81 d0bf 7908 bebf 7989 c63f 811b d5bf
00000020: ff0d ba3f f100 d7bf 844c be3f 9792 c43f
00000030: 89d0 cfbf 3ba7 cf3f 3924 bcbf 53b7 b8bf
00000040: 1124 c4bf dbeb d4bf 471a cbbf 1520 c93f
00000050: 256a c13f 1745 cbbf 7ffe cc3f b1ca d4bf
00000060: 7f12 bcbf 9d6d c8bf a188 cfbf b5ef bf3f
00000070: 093b bc3f 1114 cb3f d1ce bd3f 6e3a d83f
00000080: a5b5 bcbf 0fb4 c0bf 4965 d6bf 7c2c d1bf
00000090: 0ade c5bf 7122 d43f 9168 c6bf 210c c6bf
000000a0: 6754 cebf b54f cf3f c3e9 c73f 379b c23f
000000b0: abd0 ccbf cd71 bd3f 5553 bdbf b1c4 d1bf
000000c0: 09ec c83f b311 cf3f 79d1 cdbf 7b91 ca3f
000000d0: 7b26 c3bf 712f d7bf ed5d cebf ff30 c1bf
000000e0: abc2 c03f b955 d83f efb6 b83f 291b c53f
000000f0: a320 bf3f 2176 cf3f a94a d1bf 8c06 d0bf
00000100: 1420 c6bf 2ecb c83f a3fe c53f 8e7d c63f
00000110: 2014 b9bf 066e c6bf e64e c83f ba95 c5bf
00000120: 0ecc ba3f 0e7c c2bf 9a50 ba3f 0a15 c93f
00000130: 9697 b6bf ac01 d23f eebf bfbf fab2 b4bf
00000140: 02b9 c7bf c865 cfbf c82f c2bf 5b75 c93f
00000150: 40f3 c03f 2086 d3bf 3477 b73f 0253 ccbf
00000160: f082 bbbf aab7 cbbf deef bbbf 80e8 c63f
00000170: 6e68 d13f aea7 bc3f 840e bb3f b012 d13f
00000180: bec8 b5bf 1e3a c6bf 304f b4bf 74ce b7bf
00000190: e3fa b9bf 80c9 d23f ff90 cbbf 3e10 c2bf
000001a0: 7420 cabf 2c2f c83f f5b3 d03f 16ad b63f
000001b0: 004d d1bf 7e59 d33f 123d c4bf 3416 cdbf
000001c0: 3ae7 ce3f 2e7c cd3f 5a6a bbbf c6db b63f
000001d0: f2fc bebf 9237 d3bf 16ad b7bf 6a9f c1bf
000001e0: 9882 b93f 2aec cc3f d87b cc3f ce9f c83f
000001f0: 7c5f c73f 6811 bd3f f371 cebf f331 cabf
00000200: 9de6 b8bf d74d d53f 0db5 bc3f 61e8 c13f
00000210: e5cf b6bf 0580 ccbf d36e c83f c316 ccbf
00000220: 014d bd3f 8177 c4bf eed8 c63f 1910 cd3f
00000230: b7e3 c4bf 8b50 cf3f 71e6 c2bf 953b d4bf
00000240: 6509 bbbf 3311 bdbf 4069 b7bf b761 d13f
00000250: cb5f b73f 3324 bfbf 592b cb3f 0698 bcbf
00000260: cbb3 bcbf b153 bbbf 55ac d1bf 4bfa c43f
00000270: 3b12 ba3f d9eb c83f 13a7 d33f bfb4 c03f
00000280: 0d8c c2bf b39b c2bf 5779 bdbf 45e0 babf
00000290: d1a9 b8bf cd76 ba3f f745 c6bf b322 c6bf
000002a0: b7be c2bf 83cb b83f 3395 cc3f 6bcd d43f
000002b0: b944 d2bf 71c8 b73f 6361 c5bf f70e cbbf
000002c0: 33f9 bc3f d7a5 ce3f 9f68 c8bf 7d05 bd3f
000002d0: cb90 c6bf 5d37 d0bf c79c cebf 5f0d cbbf
000002e0: c9a5 c03f 4f95 b83f 433d c43f 5fef b53f
000002f0: 518a d23f e381 c03f ad12 d1bf 95cd bbbf
00000300: 5cf7 c3bf a625 d33f 8057 cd3f 46d4 c03f
00000310: 8ca9 c9bf 2ca7 d6bf 2a6d c13f d2e3 cbbf
00000320: c089 d03f 484f d2bf 7aac b93f ee8f c03f
00000330: 915b cebf 90fe d63f 7ec6 c6bf e205 d5bf
00000340: 225a b9bf 84d1 bcbf df88 bebf 8ec4 d43f
00000350: d478 c63f 1a9f cebf f29e ba3f 307a cbbf
00000360: 9894 c2bf d67e d0bf 28f3 cbbf 306b c73f
00000370: 8692 c63f 38af d23f 868c bf3f 48dd c73f
00000380: e828 d4bf 22c4 bdbf c8b6 bdbf 5909 c6bf
00000390: c0d9 cbbf 1210 c83f 7fd7 cbbf 36e1 bcbf
000003a0: fa10 cdbf eecf c43f 3d9b bf3f 5157 ce3f
000003b0: 22e3 c8bf aeb9 cd3f 9a39 d6bf 200c d7bf
000003c0: 6e7f c93f b27d c83f ea56 c0bf b208 c73f
000003d0: 3cb5 d0bf 64c2 cdbf aef4 b9bf b07e bebf
000003e0: aee7 d63f 3e9c ce3f 0aad b93f 56f3 c73f
000003f0: b0e8 b83f 26bd cc3f 768f d1bf f896 c0bf

a2.bias f4 [9]
1.5157846 1.6143968 1.5282465 1.4981916 1.5151669 1.5406256 1.513161 1.6069164
-0.2789735
00000000: 3b05 c23f 8ea4 ce3f 959d c33f bec4 bf3f
00000010: fdf0 c13f 3833 c53f 42af c13f 70af cd3f
00000020: 9dd5 8ebe
