Experiments/RL/models/Double DQN/policy_net.pth (torch, 576040 bytes, 4 tensors)

a1.weight f4 [64, 2232]
00000000: 0a94 1f3c c032 f0b9 ce1a 6b3c 008d 6fb9
00000010: 41ca 0abc c48f 153c 84a1 903b 0152 46bc
00000020: 117c a1bc 7215 07bc e449 9e3b f891 44bc
00000030: 78fa 8fbc 2a40 0ebc d289 8dbc 7e06 7f3c
00000040: 7716 8b3c ea17 d9bb b961 8e3c eba5 9b3c
00000050: f2f3 64bc 00c3 9fbb fe2a 403c 02f1 783c
00000060: 8010 113c a66a 0b3c 63d5 94bc 2adb 8ebc
00000070: 178f 8c3c f3a5 a1bc 001c 9abb 60a0 a83a
00000080: 10d8 003c a00e 793a a0c5 153b 50d5 a5bb
00000090: 03d4 88bc 12da 3abc 2914 8c3c e290 063c
000000a0: 5c1b e2bb 98e5 193b 1861 e5bb 2b57 823c
000000b0: 6ff1 923c 3e1f d8bb d209 703c d706 9e3c
000000c0: 2ad6 573c f104 37bc 3084 42bb 563c 64bc
000000d0: ca3b 313c 546e a9bc 40b1 e939 64b3 91bc
000000e0: 021f 163c a575 aabc 0874 d9bb aa49 423c
000000f0: b091 e43a 7863 053c 0058 b6ba c11b a43c
00000100: 63c9 9e3c 5963 42bc f271 08bc 8c7e e23b
00000110: 4459 dabb 91fa 87bc b6c4 7abc beea 253c
00000120: d807 6cbc 12f8 64bc 3705 8e3c fc3e 67bc
00000130: 02ca d3bb 36d3 bcbb a97a 7abc b0a2 6b3b
00000140: 977a 42bc 8886 b53b 1a50 543c a012 40bb
00000150: e0ad 19ba 982b 393b d46a 0c3c 69e0 97bc
00000160: b36c 96bc ba79 733c 4d99 26bc 4a64 a7bc
00000170: a531 9c3c ee03 383c 28bd 43bb 499a 02bc
00000180: a66b 82bc 882b 113b ff10 94bc be56 4c3c
00000190: 400d b9bb 120e dfbb cf74 3abc 4dc9 32bc
000001a0: 237d 50bc 017a 983c 3026 f63b 9e98 303c
000001b0: a868 aa3b 054b 6fbc 1cf3 82bb ca1e 503c
000001c0: dce0 f13b 9f14 803c b056 9fba 4062 72ba
000001d0: 809b 053a 632a 9a3c 6642 5d3c a0d3 073b
000001e0: c081 943a e679 5a3c 8045 44b9 f2b0 7a3c
000001f0: 0e96 4d3c 8736 893c 8c5c 82bb 80bf df39
00000200: b864 413b 38dc 03bb 9bde a33c a6e7 7c3c
00000210: 6e77 663c b3f7 ab3c 0a60 193c c4a7 21bc
00000220: e600 c9bb 5011 933b 3006 613b c683 b8bb
00000230: 2161 48bc e9b8 8a3c 78ad babb 5676 1e3c
00000240: 00da a9b8 1c35 88bb 374b 843c d9bf a63c
00000250: 091a ad3c 8c27 78bc 64cd 52bc d62d 3dbc
00000260: 706b 49bc 20c5 7ebb 0c1f 46bc 9cbc 43bc
00000270: 5e61 2e3c 6b31 803c eb2c 59bc c4ac a2bc
00000280: bc5d e83b 8047 333a 3a2f 1dbc 9048 41bb
00000290: 5216 cdbb 9021 90bc f468 223c c074 4b3b
000002a0: 1822 1d3b 74bd d53b a2a0 2b3c 6642 7f3c
000002b0: 641c 98bc 16bf 9cbc 8749 1abc 18e5 79bb
000002c0: 2c1c 8d3b ae59 4a3c 8488 d1bb 7c62 95bb
000002d0: 195a 2dbc 2838 2cbc 4d23 1bbc 840d 963b
000002e0: 40b5 05ba f07e d2ba 02b5 233c f0f6 c9ba
000002f0: 9ef9 6b3c 4cd9 953b 6ec3 36bc 3431 8cbb
00000300: 78ba e8bb 06a0 513c 0680 d8bb ef37 2bbc
00000310: f03d 303b 68c6 75bb 9e00 063c 6e29 623c
00000320: d2e2 76bc 35d9 1ebc 04fc 5fbc 00ca 8f39
00000330: 32e5 d6bb 9ad4 4b3c 6daf 5fbc c090 8f3b
00000340: f080 0d3b 6eff c4bb 2a6c 503c d667 193c
00000350: 58f5 14bc 434a 24bc a253 753c 84e1 cf3b
00000360: 725a 3a3c 40d4 7aba 00fa e9b9 a442 b1bb
00000370: 31e1 88bc d00a ac3a ef46 6dbc 6012 98bc
00000380: ec86 6fbc 61c6 883c 684a d6bb c084 d439
00000390: c8b2 813b 8c99 b43b 0089 3c39 6c69 babb
000003a0: e634 603c 8a6d 8bbc f475 87bc afc5 933c
000003b0: dc89 e13b 6461 41bc 1c98 083c 42c0 ccbb
000003c0: d6ca 0d3c 306e 5abc 6e77 1d3c 2895 36bb
000003d0: cd9f 923c 4283 5d3c b232 743c a3bb 19bc
000003e0: 40e3 463a 020d 493c b11a 9b3c c466 8f3b
000003f0: 6be1 02bc 3745 00bc 8000 98bc 3411 71bc
0.009739885 -0.0004581418 0.014349652 -0.00022845343 -0.008471073 0.009128515 0.0044137854 -0.012104512
-0.01971248 -0.008244859 0.004830586 -0.011997692 -0.017575487 -0.00868229 -0.017277632 0.015565513
0.016978486 -0.006625165 0.017380582 0.019000014 -0.013974177 -0.0048755407 0.011729 0.0151941795
0.008854032 0.008509314 -0.018168157 -0.01743849 0.017158074 -0.019732451 -0.004703045 0.0012865178
0.007864013 0.00095007755 0.002285339 -0.005060829 -0.016702658 -0.011404531 0.017099457 0.008213254
-0.006900234 0.0023482796 -0.0070001 0.015910706 0.01793739 -0.0065955212 0.014650779 0.01929037
0.013173619 -0.011170612 -0.002968084 -0.013930401 0.0108174775 -0.020682491 0.00044573285 -0.017785735
0.009162666 -0.02080805 -0.0066361465 0.011858383 0.0017438438 0.008141391 -0.0013911724 0.020032765
0.019383138 -0.011864507 -0.008327948 0.006912058 -0.0066634733 -0.016598972 -0.015305689 0.010126768
-0.014406167 -0.01397516 0.017336471 -0.014114138 -0.00646329 -0.005762483 -0.0152880335 0.0035955124
-0.011870048 0.005539719 0.012958551 -0.0029307976 -0.0005862396 0.0028254744 0.008570392 -0.018539624
-0.018362379 0.014860565 -0.010168386 -0.020433564 0.019066641 0.011231406 -0.0029867385 -0.007971355
-0.015920471 0.002215119 -0.01807451 0.012471853 -0.0056473315 -0.0068070972 -0.011380388 -0.010912252
-0.012725147 0.018612863 0.0075118765 0.010778574 0.0052004643 -0.014605288 -0.003996266 0.012702653
0.0073815417 0.015634833 -0.0012156572 -0.0009246208 0.00050967187 0.01881904 0.0135046 0.0020725504
0.0011330172 0.013334727 -0.00018717907 0.015300976 0.012547983 0.016749633 -0.0039783176 0.00042676553
0.0029509496 -0.0020120274 0.020003607 0.015436089 0.01406656 0.020992136 0.009361276 -0.009866659
-0.0061341403 0.004488148 0.0034335963 -0.005630943 -0.012230189 0.016933875 -0.0056969486 0.009671768
-8.099154e-05 -0.0041567218 0.016149146 0.020355152 0.021130579 -0.015146147 -0.012866352 -0.011546573
-0.0122936815 -0.003887482 -0.012092363 -0.011946823 0.010643331 0.015648564 -0.013255338 -0.019857772
0.007091252 0.00068389624 -0.009593779 -0.0029492714 -0.0062587643 -0.017594129 0.009912718 0.003104493
0.002397662 0.0065228287 0.01047531 0.015579795 -0.018568225 -0.019134086 -0.009416944 -0.0038130935
0.004306337 0.012350483 -0.0063944478 -0.0045588594 -0.010580563 -0.010511436 -0.009468866 0.004579248
-0.0005100556 -0.0016059559 0.009991886 -0.0015408676 0.014402775 0.004573023 -0.0111549925 -0.0042783264
-0.007102307 0.0127945 -0.0066070585 -0.010450347 0.0026892386 -0.0037502293 0.008178858 0.013803823
-0.015068727 -0.009695341 -0.013670925 0.00027425587 -0.006558084 0.012440825 -0.013652665 0.004381269
0.0021591745 -0.006011895 0.012721101 0.009363135 -0.009091698 -0.010027471 0.014973553 0.006344022
0.011374103 -0.0009568371 -0.00044627488 -0.0054095555 -0.016708942 0.0013125781 -0.014482244 -0.01856345
-0.01461957 0.016696157 -0.0065396316 0.00040534697 0.00395808 0.0055114683 0.00017980114 -0.005688837
0.013684487 -0.017020006 -0.016535737 0.018038599 0.006882889 -0.011803005 0.008337047 -0.006248505
0.008654317 -0.013331935 0.009610994 -0.00278599 0.017898465 0.013520064 0.014904665 -0.009383115
0.00075869635 0.012271168 0.018933626 0.0043762643 -0.007988314 -0.007829002 -0.018554926 -0.014713574

a1.bias f4 [64]
00000000: 7c3f 06bc 97c8 69bc 58e6 393c a220 42bc
00000010: 6778 403c daa7 80bc 245a 773c 5eaa 35bc
00000020: 2237 8c3c ded7 ff3b 04a9 62bc 887b 513b
00000030: 35ea 8e3c 73a5 1c3c 0a4a 34bd aa81 0bbc
00000040: 5cd5 843c 5285 ecbb 3940 3b3c f47c 70bc
00000050: 6f4b 91bc f9e8 b6bb 2af0 ffbc 95c3 7a3b
00000060: ae77 853c 5da9 953c 00e8 0eba 6bef 753d
00000070: d005 a4bc b4f7 4f3c c97a 66bc b856 19bb
00000080: 8255 4b3c 747e 99bc 0bf9 823c a4d4 1abd
00000090: 88d1 5dbc 862f 5bbc 8017 4f39 bd49 2a3a
000000a0: f02c 8fba 3cbe 0f3b 9ce6 b9bb 0195 d53a
000000b0: 9d2c 20bd 76a5 773c 8aa8 4ebc d7cf ea3b
000000c0: e993 3dbc dd5e 243d 3836 023c 04df 803b
000000d0: 2a8b 66bc 6a4b e9bc 2ca1 dcbb 3e05 af3c
000000e0: f480 4cbd fd47 883c eb73 df3b 473e abbc
000000f0: 6a23 653b b64e 30bc e13d 883a 75fd 993c
-0.008193847 -0.014269016 0.011346422 -0.011848601 0.011747456 -0.015705038 0.015097175 -0.011087982
0.017116133 0.007807716 -0.013834242 0.00319645 0.017445663 0.009560931 -0.04401592 -0.008514801
0.016215019 -0.0072180415 0.011428886 -0.014678229 -0.017736165 -0.0055819717 -0.031242449 0.0038263549
0.01629242 0.018269235 -0.0005451441 0.06004278 -0.020022303 0.012693334 -0.01406736 -0.0023397636
0.012410523 -0.018737055 0.015987894 -0.037800446 -0.013538726 -0.01337803 0.00019749813 0.0006495973
-0.0010923427 0.0021933457 -0.0056732427 0.0016295017 -0.039105047 0.015115133 -0.012613425 0.0071658897
-0.011570909 0.04012953 0.007947497 0.0039328355 -0.014071265 -0.028478343 -0.0067330804 0.021364804
-0.049927667 0.01663589 0.0068192384 -0.02090372 0.0034963735 -0.010760954 0.0010394418 0.018797616

a2.weight f4 [9, 64]
00000000: 62a7 843f 32aa 82bf b205 53bf 742c 4f3f
00000010: 9809 6d3f e811 62bf 0ec4 70bf 2c41 613f
00000020: d082 4dbf 82bd 5f3f be70 84bf ca37 503f
00000030: de4b 80bf f036 763f b0af 62bf 28ea 5b3f
00000040: e81a 533f 0c69 673f e8a1 773f d242 7a3f
00000050: 105b 6bbf 9851 84bf 27cb 80bf 7c7e 623f
00000060: cc73 693f 8a46 7d3f 8eb7 61bf 4444 753f
00000070: a61d 55bf 1474 81bf 1c45 54bf 44d5 5cbf
00000080: 3af6 7d3f df11 803f baf5 5e3f 4078 0940
00000090: 40de 733f a4b6 5bbf 1047 82bf a0a6 62bf
000000a0: b28f 4dbf 00be 593f 46fd 65bf 0cab 6bbf
000000b0: f889 84bf c4f0 6b3f ac94 59bf 5cce 57bf
000000c0: 1e85 723f 78bc 4d3f 1a47 773f f8c6 4ebf
000000d0: 0e80 72bf b487 81bf 5044 4c3f 1e44 7a3f
000000e0: 8c87 52bf 2698 83bf 7877 6d3f 2a71 713f
000000f0: a806 83bf b2f1 4cbf c838 66bf 24b9 5e3f
00000100: 96c1 4c3f f33d 5cbf 3663 57bf d84a 443f
00000110: 1e24 603f c517 69bf 4ed5 73bf fca7 733f
00000120: 01d8 54bf f65b 573f ecc4 5bbf d61a 7c3f
00000130: b145 77bf d4f9 553f 77cb 64bf 33b4 6c3f
00000140: 4e31 613f b870 803f a410 6b3f b883 583f
00000150: 4f37 65bf 0089 4bbf 6406 7fbf 65cf 6a3f
00000160: e8d9 5d3f c4b0 733f dce2 71bf 546f 813f
00000170: 3593 53bf af7c 75bf f6c8 6bbf 8fb9 59bf
00000180: 698a 6b3f 7c90 6d3f d8d9 6a3f 0b6d 0040
00000190: 385f 453f 2a79 7fbf 7cc0 60bf 50de 47bf
000001a0: 0055 53bf 5fb0 7c3f 8c16 81bf fc0c 81bf
000001b0: 8ad1 6bbf 886b 493f 4094 68bf 85a7 6fbf
000001c0: 7b9e 533f 8c06 633f 62f3 6b3f c940 5dbf
000001d0: cc0a 6abf 9b62 55bf bc21 613f 711b 6f3f
000001e0: 54b2 7bbf a31e 5dbf 4f0e 643f f189 653f
000001f0: 5374 66bf 634e 65bf 4321 75bf f8d4 683f
00000200: 9c99 5a3f 59a8 61bf 9c02 56bf 00a8 603f
00000210: b223 583f 2d60 73bf 258a 81bf cecd 493f
00000220: 859e 7dbf c585 603f 7dfc 7bbf d2be 583f
00000230: fa1d 6fbf 9634 453f d871 49bf d929 6e3f
00000240: 85b2 803f e300 823f c8c5 453f f405 7d3f
00000250: bf5a 81bf dc48 5cbf bc56 80bf 408c 533f
00000260: d6c4 733f 0a66 803f 0859 78bf c823 513f
00000270: b9ae 6abf 2c45 5bbf f490 48bf 73d7 71bf
00000280: 0cbd 5e3f cdef 803f 2aa3 553f 6adf 0640
00000290: 111f 653f eeef 76bf 8e8b 55bf 0a8c 56bf
000002a0: 6061 46bf d7a3 7a3f 44b3 49bf 329d 4abf
000002b0: e959 6ebf d5e3 633f dd6b 80bf 1219 47bf
000002c0: 5e25 643f 06ff 793f eeee 573f df5c 82bf
000002d0: ccea 44bf 28ee 5abf e35a 663f 3f15 833f
000002e0: 2ec1 78bf c0b8 55bf b3b7 723f abd8 743f
000002f0: ec60 58bf c209 71bf b44a 72bf a014 7c3f
00000300: 5854 823f 6a04 7cbf bdb1 6abf e992 4c3f
00000310: e761 5c3f 8d5a 7cbf 966e 81bf 7967 513f
00000320: ab1a 72bf d948 5b3f 2d41 74bf 95a9 713f
00000330: 790c 6cbf 51a6 773f dd6f 57bf 5e9c 7f3f
00000340: d914 5b3f a529 4d3f 71f8 683f 0397 523f
00000350: dacf 80bf 9342 5cbf 3927 4dbf 9b8e 563f
00000360: 99e6 603f f5e1 5f3f 235f 77bf a5e4 713f
00000370: 39af 5cbf c87a 81bf c75b 56bf dfff 50bf
00000380: 9c72 7b3f 51b8 543f 11f2 593f bbb8 0140
00000390: 0455 823f fd0b 5dbf 4d0e 5bbf 0592 64bf
000003a0: 35c3 59bf 6129 643f 05f7 71bf f5fa 5abf
000003b0: 6551 60bf 0732 503f 4fd0 71bf b15f 58bf
000003c0: 1313 713f 8d9c 753f ef4c 733f e3ee 5ebf
000003d0: 2423 84bf ecb6 79bf 5137 6f3f 312e 5b3f
000003e0: abfa 79bf eb39 7cbf 1505 703f 925e 823f
000003f0: 0eb7 7ebf ad3b 5abf 63cf 76bf 01dd 6d3f
1.0363581 -1.020819 -0.82430565 0.80927205 0.92592764 -0.8830857 -0.94049156 0.8799007
-0.8027773 0.8739854 -1.0346906 0.8133513 -1.0023153 0.9617758 -0.8854933 0.8590417
0.8246293 0.90394664 0.96731424 0.9775821 -0.91935825 -1.03374 -1.0061997 0.8847425
0.91192317 0.9893576 -0.8817071 0.9580729 -0.83248365 -1.0113549 -0.8291795 -0.8626292
0.99203837 1.0005454 0.870937 2.1479645 0.95261 -0.8582556 -1.0177937 -0.885355
-0.80297387 0.8505554 -0.8983959 -0.9205787 -1.0354605 0.92164254 -0.8499248 -0.84299254
0.9473437 0.80365705 0.9659287 -0.8077235 -0.94726646 -1.0119538 0.79791737 0.9776019
-0.8223808 -1.0280807 0.9276042 0.943133 -1.0236406 -0.800563 -0.8993039 0.8700125
0.7998289 -0.86032027 -0.8413576 0.766767 0.8755511 -0.91051894 -0.9524735 0.951782
-0.83142096 0.84124696 -0.85847354 0.9847845 -0.96590716 0.8358433 -0.8937296 0.9246246
0.8796586 1.0034399 0.91822267 0.84575987 -0.8953752 -0.7950592 -0.99619126 0.9172271
0.86660624 0.951916 -0.94486785 1.01121 -0.82646495 -0.9589338 -0.9210352 -0.85048765
0.9200807 0.9279859 0.91738653 2.0066555 0.7709842 -0.99794257 -0.8779371 -0.78073597
-0.82551575 0.9870662 -1.0085006 -1.0082088 -0.92116606 0.78679705 -0.9085121 -0.9361499
0.82663697 0.88681865 0.9216825 -0.8642698 -0.91422725 -0.83353585 0.879421 0.9340125
-0.9831898 -0.8637487 0.89084333 0.89663607 -0.90021247 -0.89572734 -0.9575388 0.90949965
0.8539064 -0.88147503 -0.8359773 0.8775635 0.84429467 -0.9506863 -1.0120283 0.7882966
-0.99070007 0.87704116 -0.9843214 0.8466617 -0.93405116 0.77033365 -0.78689337 0.93032604
1.005448 1.0156521 0.77254915 0.9883721 -1.0105819 -0.86048675 -1.0026469 0.8263588
0.9522222 1.003114 -0.9701085 0.8169522 -0.91672856 -0.8565242 -0.7834618 -0.94469374
0.8700721 1.0073181 0.83452094 2.107386 0.8950053 -0.96459854 -0.8341607 -0.8380743
-0.7749233 0.9790625 -0.7878916 -0.7914611 -0.9310594 0.8901952 -1.0032917 -0.7777263
0.8911952 0.9765476 0.8434895 -1.0184592 -0.7692077 -0.8551965 0.8998243 1.0240859
-0.9716977 -0.8348503 0.9481155 0.9564311 -0.8452289 -0.94155514 -0.9464524 0.9846897
1.018199 -0.98444235 -0.9167746 0.7991167 0.8608689 -0.9857567 -1.0111873 0.8179851
-0.9457194 0.8565803 -0.9541195 0.94399387 -0.9220653 0.96738154 -0.84155065 0.9984797
0.85578686 0.8014167 0.9100409 0.82261676 -1.0063431 -0.86039084 -0.80137974 0.8381135
0.87851864 0.8745416 -0.9662954 0.9448951 -0.8620487 -1.0115595 -0.8373379 -0.8164043
0.98221755 0.83093745 0.8513499 2.0269 1.0182195 -0.8634642 -0.85568696 -0.8928531
-0.8506349 0.8912564 -0.94517547 -0.8553918 -0.876242 0.81326336 -0.9445848 -0.84521013
0.9416973 0.95942 0.95039266 -0.8708326 -1.0323224 -0.9754474 0.9344378 0.8561736
-0.97648114 -0.98525876 0.93757755 1.018511 -0.9949807 -0.8524731 -0.96410197 0.9291535

a2.bias f4 [9]
00000000: b0eb 6b3f c9c9 6e3f 0e8b 503f d399 6e3f
00000010: 4e70 833f ee40 4b3f 58ff 663f c81c 743f
00000020: f5e2 d13e
0.92156506 0.9327665 0.8146218 0.9320347 1.0268648 0.7939595 0.90233374 0.95356417
0.40993467
