Experiments/RL/models/Double DQN/target_net.pth (torch, 576040 bytes, 4 tensors)

a1.weight f4 [64, 2232]
000000 0a 94 1f 3c c0 32 f0 b9 ce 1a 6b 3c 00 8d 6f b9
       0.009739885 -0.0004581418 0.014349652 -0.00022845343
000010 41 ca 0a bc c4 8f 15 3c 84 a1 90 3b 01 52 46 bc
       -0.008471073 0.009128515 0.0044137854 -0.012104512
000020 11 7c a1 bc 72 15 07 bc e4 49 9e 3b f8 91 44 bc
       -0.01971248 -0.008244859 0.004830586 -0.011997692
000030 78 fa 8f bc 2a 40 0e bc d2 89 8d bc 7e 06 7f 3c
       -0.017575487 -0.00868229 -0.017277632 0.015565513
000040 77 16 8b 3c ea 17 d9 bb b9 61 8e 3c eb a5 9b 3c
       0.016978486 -0.006625165 0.017380582 0.019000014
000050 f2 f3 64 bc 00 c3 9f bb fe 2a 40 3c 02 f1 78 3c
       -0.013974177 -0.0048755407 0.011729 0.0151941795
000060 80 10 11 3c a6 6a 0b 3c 63 d5 94 bc 2a db 8e bc
       0.008854032 0.008509314 -0.018168157 -0.01743849
000070 17 8f 8c 3c f3 a5 a1 bc 00 1c 9a bb 60 a0 a8 3a
       0.017158074 -0.019732451 -0.004703045 0.0012865178
000080 10 d8 00 3c a0 0e 79 3a a0 c5 15 3b 50 d5 a5 bb
       0.007864013 0.00095007755 0.002285339 -0.005060829
000090 03 d4 88 bc 12 da 3a bc 29 14 8c 3c e2 90 06 3c
       -0.016702658 -0.011404531 0.017099457 0.008213254
0000a0 5c 1b e2 bb 98 e5 19 3b 18 61 e5 bb 2b 57 82 3c
       -0.006900234 0.0023482796 -0.0070001 0.015910706
0000b0 6f f1 92 3c 3e 1f d8 bb d2 09 70 3c d7 06 9e 3c
       0.01793739 -0.0065955212 0.014650779 0.01929037
0000c0 2a d6 57 3c f1 04 37 bc 30 84 42 bb 56 3c 64 bc
       0.013173619 -0.011170612 -0.002968084 -0.013930401
0000d0 ca 3b 31 3c 54 6e a9 bc 40 b1 e9 39 64 b3 91 bc
       0.0108174775 -0.020682491 0.00044573285 -0.017785735
0000e0 02 1f 16 3c a5 75 aa bc 08 74 d9 bb aa 49 42 3c
       0.009162666 -0.02080805 -0.0066361465 0.011858383
0000f0 b0 91 e4 3a 78 63 05 3c 00 58 b6 ba c1 1b a4 3c
       0.0017438438 0.008141391 -0.0013911724 0.020032765
000100 63 c9 9e 3c 59 63 42 bc f2 71 08 bc 8c 7e e2 3b
       0.019383138 -0.011864507 -0.008327948 0.006912058
000110 44 59 da bb 91 fa 87 bc b6 c4 7a bc be ea 25 3c
       -0.0066634733 -0.016598972 -0.015305689 0.010126768
000120 d8 07 6c bc 12 f8 64 bc 37 05 8e 3c fc 3e 67 bc
       -0.014406167 -0.01397516 0.017336471 -0.014114138
000130 02 ca d3 bb 36 d3 bc bb a9 7a 7a bc b0 a2 6b 3b
       -0.00646329 -0.005762483 -0.0152880335 0.0035955124
000140 97 7a 42 bc 88 86 b5 3b 1a 50 54 3c a0 12 40 bb
       -0.011870048 0.005539719 0.012958551 -0.0029307976
000150 e0 ad 19 ba 98 2b 39 3b d4 6a 0c 3c 69 e0 97 bc
       -0.0005862396 0.0028254744 0.008570392 -0.018539624
000160 b3 6c 96 bc ba 79 73 3c 4d 99 26 bc 4a 64 a7 bc
       -0.018362379 0.014860565 -0.010168386 -0.020433564
000170 a5 31 9c 3c ee 03 38 3c 28 bd 43 bb 49 9a 02 bc
       0.019066641 0.011231406 -0.0029867385 -0.007971355
000180 a6 6b 82 bc 88 2b 11 3b ff 10 94 bc be 56 4c 3c
       -0.015920471 0.002215119 -0.01807451 0.012471853
000190 40 0d b9 bb 12 0e df bb cf 74 3a bc 4d c9 32 bc
       -0.0056473315 -0.0068070972 -0.011380388 -0.010912252
0001a0 23 7d 50 bc 01 7a 98 3c 30 26 f6 3b 9e 98 30 3c
       -0.012725147 0.018612863 0.0075118765 0.010778574
0001b0 a8 68 aa 3b 05 4b 6f bc 1c f3 82 bb ca 1e 50 3c
       0.0052004643 -0.014605288 -0.003996266 0.012702653
0001c0 dc e0 f1 3b 9f 14 80 3c b0 56 9f ba 40 62 72 ba
       0.0073815417 0.015634833 -0.0012156572 -0.0009246208
0001d0 80 9b 05 3a 63 2a 9a 3c 66 42 5d 3c a0 d3 07 3b
       0.00050967187 0.01881904 0.0135046 0.0020725504
0001e0 c0 81 94 3a e6 79 5a 3c 80 45 44 b9 f2 b0 7a 3c
       0.0011330172 0.013334727 -0.00018717907 0.015300976
0001f0 0e 96 4d 3c 87 36 89 3c 8c 5c 82 bb 80 bf df 39
       0.012547983 0.016749633 -0.0039783176 0.00042676553
000200 b8 64 41 3b 38 dc 03 bb 9b de a3 3c a6 e7 7c 3c
       0.0029509496 -0.0020120274 0.020003607 0.015436089
000210 6e 77 66 3c b3 f7 ab 3c 0a 60 19 3c c4 a7 21 bc
       0.01406656 0.020992136 0.009361276 -0.009866659
000220 e6 00 c9 bb 50 11 93 3b 30 06 61 3b c6 83 b8 bb
       -0.0061341403 0.004488148 0.0034335963 -0.005630943
000230 21 61 48 bc e9 b8 8a 3c 78 ad ba bb 56 76 1e 3c
       -0.012230189 0.016933875 -0.0056969486 0.009671768
000240 00 da a9 b8 1c 35 88 bb 37 4b 84 3c d9 bf a6 3c
       -8.099154e-05 -0.0041567218 0.016149146 0.020355152
000250 09 1a ad 3c 8c 27 78 bc 64 cd 52 bc d6 2d 3d bc
       0.021130579 -0.015146147 -0.012866352 -0.011546573
000260 70 6b 49 bc 20 c5 7e bb 0c 1f 46 bc 9c bc 43 bc
       -0.0122936815 -0.003887482 -0.012092363 -0.011946823
000270 5e 61 2e 3c 6b 31 80 3c eb 2c 59 bc c4 ac a2 bc
       0.010643331 0.015648564 -0.013255338 -0.019857772
000280 bc 5d e8 3b 80 47 33 3a 3a 2f 1d bc 90 48 41 bb
       0.007091252 0.00068389624 -0.009593779 -0.0029492714
000290 52 16 cd bb 90 21 90 bc f4 68 22 3c c0 74 4b 3b
       -0.0062587643 -0.017594129 0.009912718 0.003104493
0002a0 18 22 1d 3b 74 bd d5 3b a2 a0 2b 3c 66 42 7f 3c
       0.002397662 0.0065228287 0.01047531 0.015579795
0002b0 64 1c 98 bc 16 bf 9c bc 87 49 1a bc 18 e5 79 bb
       -0.018568225 -0.019134086 -0.009416944 -0.0038130935
0002c0 2c 1c 8d 3b ae 59 4a 3c 84 88 d1 bb 7c 62 95 bb
       0.004306337 0.012350483 -0.0063944478 -0.0045588594
0002d0 19 5a 2d bc 28 38 2c bc 4d 23 1b bc 84 0d 96 3b
       -0.010580563 -0.010511436 -0.009468866 0.004579248
0002e0 40 b5 05 ba f0 7e d2 ba 02 b5 23 3c f0 f6 c9 ba
       -0.0005100556 -0.0016059559 0.009991886 -0.0015408676
0002f0 9e f9 6b 3c 4c d9 95 3b 6e c3 36 bc 34 31 8c bb
       0.014402775 0.004573023 -0.0111549925 -0.0042783264
000300 78 ba e8 bb 06 a0 51 3c 06 80 d8 bb ef 37 2b bc
       -0.007102307 0.0127945 -0.0066070585 -0.010450347
000310 f0 3d 30 3b 68 c6 75 bb 9e 00 06 3c 6e 29 62 3c
       0.0026892386 -0.0037502293 0.008178858 0.013803823
000320 d2 e2 76 bc 35 d9 1e bc 04 fc 5f bc 00 ca 8f 39
       -0.015068727 -0.009695341 -0.013670925 0.00027425587
000330 32 e5 d6 bb 9a d4 4b 3c 6d af 5f bc c0 90 8f 3b
       -0.006558084 0.012440825 -0.013652665 0.004381269
000340 f0 80 0d 3b 6e ff c4 bb 2a 6c 50 3c d6 67 19 3c
       0.0021591745 -0.006011895 0.012721101 0.009363135
000350 58 f5 14 bc 43 4a 24 bc a2 53 75 3c 84 e1 cf 3b
       -0.009091698 -0.010027471 0.014973553 0.006344022
000360 72 5a 3a 3c 40 d4 7a ba 00 fa e9 b9 a4 42 b1 bb
       0.011374103 -0.0009568371 -0.00044627488 -0.0054095555
000370 31 e1 88 bc d0 0a ac 3a ef 46 6d bc 60 12 98 bc
       -0.016708942 0.0013125781 -0.014482244 -0.01856345
000380 ec 86 6f bc 61 c6 88 3c 68 4a d6 bb c0 84 d4 39
       -0.01461957 0.016696157 -0.0065396316 0.00040534697
000390 c8 b2 81 3b 8c 99 b4 3b 00 89 3c 39 6c 69 ba bb
       0.00395808 0.0055114683 0.00017980114 -0.005688837
0003a0 e6 34 60 3c 8a 6d 8b bc f4 75 87 bc af c5 93 3c
       0.013684487 -0.017020006 -0.016535737 0.018038599
0003b0 dc 89 e1 3b 64 61 41 bc 1c 98 08 3c 42 c0 cc bb
       0.006882889 -0.011803005 0.008337047 -0.006248505
0003c0 d6 ca 0d 3c 30 6e 5a bc 6e 77 1d 3c 28 95 36 bb
       0.008654317 -0.013331935 0.009610994 -0.00278599
0003d0 cd 9f 92 3c 42 83 5d 3c b2 32 74 3c a3 bb 19 bc
       0.017898465 0.013520064 0.014904665 -0.009383115
0003e0 40 e3 46 3a 02 0d 49 3c b1 1a 9b 3c c4 66 8f 3b
       0.00075869635 0.012271168 0.018933626 0.0043762643
0003f0 6b e1 02 bc 37 45 00 bc 80 00 98 bc 34 11 71 bc
       -0.007988314 -0.007829002 -0.018554926 -0.014713574

a1.bias f4 [64]
000000 7c 3f 06 bc 97 c8 69 bc 58 e6 39 3c a2 20 42 bc
       -0.008193847 -0.014269016 0.011346422 -0.011848601
000010 67 78 40 3c da a7 80 bc 24 5a 77 3c 5e aa 35 bc
       0.011747456 -0.015705038 0.015097175 -0.011087982
000020 22 37 8c 3c de d7 ff 3b 04 a9 62 bc 88 7b 51 3b
       0.017116133 0.007807716 -0.013834242 0.00319645
000030 35 ea 8e 3c 73 a5 1c 3c 0a 4a 34 bd aa 81 0b bc
       0.017445663 0.009560931 -0.04401592 -0.008514801
000040 5c d5 84 3c 52 85 ec bb 39 40 3b 3c f4 7c 70 bc
       0.016215019 -0.0072180415 0.011428886 -0.014678229
000050 6f 4b 91 bc f9 e8 b6 bb 2a f0 ff bc 95 c3 7a 3b
       -0.017736165 -0.0055819717 -0.031242449 0.0038263549
000060 ae 77 85 3c 5d a9 95 3c 00 e8 0e ba 6b ef 75 3d
       0.01629242 0.018269235 -0.0005451441 0.06004278
000070 d0 05 a4 bc b4 f7 4f 3c c9 7a 66 bc b8 56 19 bb
       -0.020022303 0.012693334 -0.01406736 -0.0023397636
000080 82 55 4b 3c 74 7e 99 bc 0b f9 82 3c a4 d4 1a bd
       0.012410523 -0.018737055 0.015987894 -0.037800446
000090 88 d1 5d bc 86 2f 5b bc 80 17 4f 39 bd 49 2a 3a
       -0.013538726 -0.01337803 0.00019749813 0.0006495973
0000a0 f0 2c 8f ba 3c be 0f 3b 9c e6 b9 bb 01 95 d5 3a
       -0.0010923427 0.0021933457 -0.0056732427 0.0016295017
0000b0 9d 2c 20 bd 76 a5 77 3c 8a a8 4e bc d7 cf ea 3b
       -0.039105047 0.015115133 -0.012613425 0.0071658897
0000c0 e9 93 3d bc dd 5e 24 3d 38 36 02 3c 04 df 80 3b
       -0.011570909 0.04012953 0.007947497 0.0039328355
0000d0 2a 8b 66 bc 6a 4b e9 bc 2c a1 dc bb 3e 05 af 3c
       -0.014071265 -0.028478343 -0.0067330804 0.021364804
0000e0 f4 80 4c bd fd 47 88 3c eb 73 df 3b 47 3e ab bc
       -0.049927667 0.01663589 0.0068192384 -0.02090372
0000f0 6a 23 65 3b b6 4e 30 bc e1 3d 88 3a 75 fd 99 3c
       0.0034963735 -0.010760954 0.0010394418 0.018797616

a2.weight f4 [9, 64]
000000 fa 2f 85 3f ca 32 83 bf df 16 54 bf a0 3d 50 3f
       1.0405266 -1.0249875 -0.828474 0.8134403
000010 c5 1a 6e 3f 15 23 63 bf 3a d5 71 bf 59 52 62 3f
       0.930096 -0.88725406 -0.9446598 0.884069
000020 fc 93 4e bf af ce 60 3f 56 f9 84 bf f6 48 51 3f
       -0.80694556 0.87815374 -1.0388591 0.81751955
000030 72 d4 80 bf 1d 48 77 3f dd c0 63 bf 55 fb 5c 3f
       -1.0064833 0.9659441 -0.8896616 0.86321
000040 14 2c 54 3f 38 7a 68 3f 14 b3 78 3f ff 53 7b 3f
       0.8287976 0.9081149 0.9714825 0.9817504
000050 3d 6c 6c bf 30 da 84 bf c0 53 81 bf a9 8f 63 3f
       -0.9235266 -1.0379086 -1.0103683 0.88891083
000060 f8 84 6a 3f b6 57 7e 3f ba c8 62 bf 71 55 76 3f
       0.91609144 0.99352586 -0.88587534 0.96224123
000070 d2 2e 56 bf ac fc 81 bf 48 56 55 bf 71 e6 5d bf
       -0.8366519 -1.0155234 -0.8333478 -0.8667975
000080 67 07 7f 3f 7a 9a 80 3f e6 06 60 3f 01 34 09 40
       0.9962067 1.0047143 0.87510526 2.143799
000090 6c ef 74 3f d1 c7 5c bf a8 cf 82 bf cd b7 63 bf
       0.9567783 -0.86242396 -1.0219622 -0.8895233
0000a0 de a0 4e bf 2c cf 5a 3f 72 0e 67 bf 39 bc 6c bf
       -0.80714214 0.8547237 -0.90256417 -0.92474705
0000b0 90 12 85 bf f1 01 6d 3f d8 a5 5a bf 88 df 58 bf
       -1.039629 0.9258109 -0.8540931 -0.8471608
0000c0 4b 96 73 3f a4 cd 4e 3f 47 58 78 3f 24 d8 4f bf
       0.95151204 0.8078253 0.970097 -0.8118918
0000d0 3b 91 73 bf 4c 10 82 bf 7c 55 4d 3f 4b 55 7b 3f
       -0.9514348 -1.0161223 0.80208564 0.9817702
0000e0 b8 98 53 bf be 20 84 bf a5 88 6e 3f 57 82 72 3f
       -0.82654905 -1.0322492 0.93177253 0.9473013
0000f0 40 8f 83 bf de 02 4e bf f4 49 67 bf 51 ca 5f 3f
       -1.0278091 -0.80473125 -0.9034722 0.87418085
000100 4c 9c 4d 3f a9 18 5d bf ec 3d 58 bf 8e 25 45 3f
       0.80316615 -0.86365753 -0.84469485 0.7701043
000110 d4 fe 60 3f 7b f2 69 bf 04 b0 74 bf b2 82 74 3f
       0.87888837 -0.9138562 -0.9558108 0.95511925
000120 b7 b2 55 bf ac 36 58 3f a2 9f 5c bf 8c f5 7c 3f
       -0.8347582 0.8445842 -0.8618108 0.98812175
000130 67 20 78 bf 8a d4 56 3f 2d a6 65 bf e9 8e 6d 3f
       -0.9692444 0.8391806 -0.8970669 0.9279619
000140 04 0c 62 3f 1d de 80 3f 5a eb 6b 3f 6e 5e 59 3f
       0.88299584 1.0067784 0.92155993 0.84909713
000150 05 12 66 bf b6 63 4c bf 1a e1 7f bf 1b aa 6b 3f
       -0.89871246 -0.79839647 -0.9995285 0.92056435
000160 9e b4 5e 3f 7a 8b 74 3f 92 bd 72 bf b9 dc 81 3f
       0.8699435 0.95525324 -0.9482051 1.0145484
000170 eb 6d 54 bf 65 57 76 bf ac a3 6c bf 45 94 5a bf
       -0.8298022 -0.96227103 -0.92437243 -0.8538249
000180 1f 65 6c 3f 32 6b 6e 3f 8e b4 6b 3f 5c 36 00 40
       0.923418 0.9313232 0.9207238 2.0033178
000190 ee 39 46 3f ef 29 80 bf 32 9b 61 bf 06 b9 48 bf
       0.77432144 -1.0012797 -0.88127434 -0.78407323
0001a0 b6 2f 54 bf 15 8b 7d 3f f1 83 81 bf 61 7a 81 bf
       -0.828853 0.9904035 -1.011839 -1.0115472
0001b0 40 ac 6c bf 3e 46 4a 3f f6 6e 69 bf 3b 82 70 bf
       -0.9245033 0.7901343 -0.9118494 -0.93948716
0001c0 31 79 54 3f 42 e1 63 3f 18 ce 6c 3f 7f 1b 5e bf
       0.82997423 0.8901559 0.92501974 -0.86760706
0001d0 82 e5 6a bf 51 3d 56 bf 72 fc 61 3f 27 f6 6f 3f
       -0.9175645 -0.8368731 0.88275826 0.93734974
0001e0 0a 8d 7c bf 59 f9 5d bf 05 e9 64 3f a7 64 66 3f
       -0.9865271 -0.867086 0.8941806 0.89997333
0001f0 09 4f 67 bf 19 29 66 bf f9 fb 75 bf ae af 69 3f
       -0.90354973 -0.8990646 -0.96087605 0.9128369
000200 06 2b 5c 3f c3 39 63 bf 06 94 57 bf 6a 39 62 3f
       0.8600315 -0.8876001 -0.8421024 0.88368857
000210 1c b5 59 3f 97 f1 74 bf de 52 82 bf 38 5f 4b 3f
       0.85041976 -0.95681137 -1.0181539 0.7944217
000220 ef 2f 7f bf 2f 17 62 3f e7 8d 7d bf 3c 50 5a 3f
       -0.99682516 0.88316625 -0.9904465 0.8527868
000230 64 af 70 bf 00 c6 46 3f 42 03 4b bf 43 bb 6f 3f
       -0.94017625 0.77645874 -0.79301846 0.93645114
000240 3e 7b 81 3f 9c c9 82 3f 32 57 47 3f 5e 97 7e 3f
       1.0115736 1.0217776 0.77867424 0.9944972
000250 78 23 82 bf 46 da 5d bf 74 1f 81 bf aa 1d 55 3f
       -1.0167074 -0.86661184 -1.0087724 0.8324839
000260 40 56 75 3f c2 2e 81 3f 72 ea 79 bf 32 b5 52 3f
       0.9583473 1.0092394 -0.9762336 0.8230773
000270 23 40 6c bf 96 d6 5c bf 5e 22 4a bf dd 68 73 bf
       -0.92285365 -0.8626493 -0.7895869 -0.95081884
000280 76 4e 60 3f 86 b8 81 3f 94 34 57 3f 0f 7b 06 40
       0.8761972 1.0134437 0.840646 2.101261
000290 7b b0 66 3f 58 81 78 bf f8 1c 57 bf 74 1d 58 bf
       0.9011304 -0.9707236 -0.8402858 -0.8441994
0002a0 ca f2 47 bf 41 35 7c 3f ae 44 4b bf 9c 2e 4c bf
       -0.7810484 0.9851876 -0.7940167 -0.7975862
0002b0 53 eb 6f bf 3f 75 65 3f 96 34 81 bf 7c aa 48 bf
       -0.9371845 0.8963203 -1.0094173 -0.7838514
0002c0 c8 b6 65 3f 70 90 7b 3f 58 80 59 3f 98 25 83 bf
       0.8973203 0.9826727 0.8496146 -1.0245848
0002d0 36 7c 46 bf 92 7f 5c bf 4d ec 67 3f f8 dd 83 3f
       -0.7753328 -0.86132157 0.9059494 1.0302114
0002e0 98 52 7a bf 2a 4a 57 bf 1d 49 74 3f 15 6a 76 3f
       -0.9778228 -0.8409754 0.9542406 0.9625562
0002f0 56 f2 59 bf 2c 9b 72 bf 1e dc 73 bf 0a a6 7d 3f
       -0.851354 -0.94768023 -0.9525775 0.9908148
000300 7d 47 83 3f a0 ea 7d bf f3 97 6c bf 1f 79 4e 3f
       1.0256191 -0.99186134 -0.92419356 0.80653566
000310 1d 48 5e 3f c3 40 7e bf bb 61 82 bf af 4d 53 3f
       0.86828786 -0.9931757 -1.0186075 0.8254041
000320 e1 00 74 bf 0f 2f 5d 3f 63 27 76 bf cb 8f 73 3f
       -0.9531384 0.8639993 -0.9615385 0.95141286
000330 af f2 6d bf 87 8c 79 3f 13 56 59 bf 45 c1 80 3f
       -0.9294843 0.9748005 -0.84896964 1.0058981
000340 0f fb 5c 3f db 0f 4f 3f a7 de 6a 3f 39 7d 54 3f
       0.86320585 0.8088357 0.9174599 0.83003575
000350 ff c2 81 bf c9 28 5e bf 6f 0d 4f bf d1 74 58 3f
       -1.0137633 -0.86780983 -0.80879873 0.8455325
000360 cf cc 62 3f 2b c8 61 3f 59 45 79 bf db ca 73 3f
       0.88593763 0.8819606 -0.9737144 0.9523141
000370 6f 95 5e bf ed 6d 82 bf fd 41 58 bf 15 e6 52 bf
       -0.8694677 -1.0189797 -0.8447569 -0.8238233
000380 d2 58 7d 3f 87 9e 56 3f 47 d8 5b 3f 39 3f 01 40
       0.98963654 0.83835644 0.8587689 2.0194838
000390 29 48 83 3f 33 f2 5e bf 83 f4 5c bf 3b 78 66 bf
       1.0256397 -0.87088317 -0.86310595 -0.9002721
0003a0 6b a9 5b bf 97 0f 66 3f 3b dd 73 bf 2b e1 5c bf
       -0.85805386 0.8986754 -0.95259446 -0.8628108
0003b0 9b 37 62 bf 3d 18 52 3f 85 b6 73 bf e7 45 5a bf
       -0.883661 0.82068235 -0.9520038 -0.8526291
0003c0 49 f9 72 3f c3 82 77 3f 25 33 75 3f 19 d5 60 bf
       0.9491163 0.966839 0.95781165 -0.8782516
0003d0 49 16 85 bf 22 9d 7b bf 87 1d 71 3f 67 14 5d 3f
       -1.0397426 -0.9828664 0.9418568 0.86359257
0003e0 e1 e0 7b bf 21 20 7e bf 4b eb 71 3f b7 51 83 3f
       -0.9839001 -0.99267775 0.94499654 1.0259312
0003f0 a5 4e 80 bf e3 21 5c bf 99 b5 78 bf 37 c3 6f 3f
       -1.0024 -0.8598921 -0.97152096 0.9365725

a2.bias f4 [9]
000000 dd fc 6c 3f 7f a4 6f 3f 78 1c 52 3f 09 80 70 3f
       0.9257334 0.93610376 0.8207469 0.93945366
000010 de f5 83 3f f2 4f 4b 3f e2 a4 67 3f 42 76 74 3f
       1.0309408 0.7941886 0.90485966 0.9549295
000020 1d cf c0 3e
       0.37658015
